…
I0401 01:13:45.901371   278 net.cpp:294] The NetState phase (0) differed from the phase (1) specified by a rule in layer accuracy
I0401 01:13:45.902024   278 net.cpp:51] Initializing net from parameters: 
name: "ForensicNet"
state {
  phase: TRAIN
  level: 0
  stage: ""
}
layer {
  name: "imagepatch"
  type: "Data"
  top: "data"
  top: "label"
  include {
    phase: TRAIN
  }
  transform_param {
    mirror: true
  }
  data_param {
    source: "/workspace/withhost/code.sensors18/lmdb/patchPG2000qf95/train-lmdb"
    batch_size: 64
    backend: LMDB
  }
}
layer {
  name: "conv0"
  type: "Convolution"
  bottom: "data"
  top: "conv0"
  param {
    lr_mult: 0
    decay_mult: 0
  }
  convolution_param {
    num_output: 3
    bias_term: false
    pad: 2
    kernel_size: 5
    stride: 2
    weight_filler {
      type: "qian"
    }
  }
}
layer {
  name: "conv1"
  type: "Convolution"
  bottom: "conv0"
  top: "conv1"
  param {
    lr_mult: 1
    decay_mult: 0
  }
  convolution_param {
    num_output: 8
    bias_term: false
    pad: 2
    kernel_size: 5
    stride: 1
    weight_filler {
      type: "gaussian"
      std: 0.01
    }
  }
}
layer {
  name: "norm1"
  type: "BatchNorm"
  bottom: "conv1"
  top: "conv1"
  param {
    lr_mult: 0
    decay_mult: 0
  }
  param {
    lr_mult: 0
    decay_mult: 0
  }
  param {
    lr_mult: 0
    decay_mult: 0
  }
  batch_norm_param {
    moving_average_fraction: 0.05
  }
}
layer {
  name: "scale_conv1"
  type: "Scale"
  bottom: "conv1"
  top: "conv1"
  scale_param {
    bias_term: true
  }
}
layer {
  name: "relu1"
  type: "ReLU"
  bottom: "conv1"
  top: "conv1"
}
layer {
  name: "pool1"
  type: "Pooling"
  bottom: "conv1"
  top: "pool1"
  pooling_param {
    pool: AVE
    kernel_size: 5
    stride: 2
    pad: 1
    engine: CAFFE
  }
}
layer {
  name: "conv2"
  type: "Convolution"
  bottom: "pool1"
  top: "conv2"
  param {
    lr_mult: 1
    decay_mult: 0
  }
  convolution_param {
    num_output: 16
    bias_term: false
    pad: 2
    kernel_size: 5
    stride: 1
    weight_filler {
      type: "gaussian"
      std: 0.01
    }
  }
}
layer {
  name: "norm2"
  type: "BatchNorm"
  bottom: "conv2"
  top: "conv2"
  param {
    lr_mult: 0
    decay_mult: 0
  }
  param {
    lr_mult: 0
    decay_mult: 0
  }
  param {
    lr_mult: 0
    decay_mult: 0
  }
  batch_norm_param {
    moving_average_fraction: 0.05
  }
}
layer {
  name: "scale_conv2"
  type: "Scale"
  bottom: "conv2"
  top: "conv2"
  scale_param {
    bias_term: true
  }
}
layer {
  name: "relu2"
  type: "ReLU"
  bottom: "conv2"
  top: "conv2"
}
layer {
  name: "pool2"
  type: "Pooling"
  bottom: "conv2"
  top: "pool2"
  pooling_param {
    pool: AVE
    kernel_size: 5
    stride: 2
    pad: 1
    engine: CAFFE
  }
}
layer {
  name: "conv3"
  type: "Convolution"
  bottom: "pool2"
  top: "conv3"
  param {
    lr_mult: 1
    decay_mult: 0
  }
  convolution_param {
    num_output: 32
    bias_term: false
    pad: 1
    kernel_size: 3
    stride: 1
    weight_filler {
      type: "gaussian"
      std: 0.01
    }
  }
}
layer {
  name: "norm3"
  type: "BatchNorm"
  bottom: "conv3"
  top: "conv3"
  param {
    lr_mult: 0
    decay_mult: 0
  }
  param {
    lr_mult: 0
    decay_mult: 0
  }
  param {
    lr_mult: 0
    decay_mult: 0
  }
  batch_norm_param {
    moving_average_fraction: 0.05
  }
}
layer {
  name: "scale_conv3"
  type: "Scale"
  bottom: "conv3"
  top: "conv3"
  scale_param {
    bias_term: true
  }
}
layer {
  name: "relu3"
  type: "ReLU"
  bottom: "conv3"
  top: "conv3"
}
layer {
  name: "pool3"
  type: "Pooling"
  bottom: "conv3"
  top: "pool3"
  pooling_param {
    pool: AVE
    kernel_size: 5
    stride: 2
    pad: 1
    engine: CAFFE
  }
}
layer {
  name: "conv4"
  type: "Convolution"
  bottom: "pool3"
  top: "conv4"
  param {
    lr_mult: 1
    decay_mult: 0
  }
  convolution_param {
    num_output: 64
    bias_term: false
    pad: 1
    kernel_size: 3
    stride: 1
    weight_filler {
      type: "gaussian"
      std: 0.01
    }
  }
}
layer {
  name: "norm4"
  type: "BatchNorm"
  bottom: "conv4"
  top: "conv4"
  param {
    lr_mult: 0
    decay_mult: 0
  }
  param {
    lr_mult: 0
    decay_mult: 0
  }
  param {
    lr_mult: 0
    decay_mult: 0
  }
  batch_norm_param {
    moving_average_fraction: 0.05
  }
}
layer {
  name: "scale_conv4"
  type: "Scale"
  bottom: "conv4"
  top: "conv4"
  scale_param {
    bias_term: true
  }
}
layer {
  name: "relu4"
  type: "ReLU"
  bottom: "conv4"
  top: "conv4"
}
layer {
  name: "pool4"
  type: "Pooling"
  bottom: "conv4"
  top: "pool4"
  pooling_param {
    pool: AVE
    kernel_size: 5
    stride: 2
    pad: 1
    engine: CAFFE
  }
}
layer {
  name: "conv5"
  type: "Convolution"
  bottom: "pool4"
  top: "conv5"
  param {
    lr_mult: 1
    decay_mult: 0
  }
  convolution_param {
    num_output: 128
    bias_term: false
    kernel_size: 1
    stride: 1
    weight_filler {
      type: "gaussian"
      std: 0.01
    }
  }
}
layer {
  name: "norm5"
  type: "BatchNorm"
  bottom: "conv5"
  top: "conv5"
  param {
    lr_mult: 0
    decay_mult: 0
  }
  param {
    lr_mult: 0
    decay_mult: 0
  }
  param {
    lr_mult: 0
    decay_mult: 0
  }
  batch_norm_param {
    moving_average_fraction: 0.05
  }
}
layer {
  name: "scale_conv5"
  type: "Scale"
  bottom: "conv5"
  top: "conv5"
  scale_param {
    bias_term: true
  }
}
layer {
  name: "relu5"
  type: "ReLU"
  bottom: "conv5"
  top: "conv5"
}
layer {
  name: "pool5"
  type: "Pooling"
  bottom: "conv5"
  top: "pool5"
  pooling_param {
    pool: AVE
    kernel_size: 4
    stride: 1
    engine: CAFFE
  }
}
layer {
  name: "ip3"
  type: "InnerProduct"
  bottom: "pool5"
  top: "ip3"
  param {
    lr_mult: 1
  }
  param {
    lr_mult: 2
  }
  inner_product_param {
    num_output: 2
    weight_filler {
      type: "xavier"
    }
    bias_filler {
      type: "constant"
    }
  }
}
layer {
  name: "loss"
  type: "SoftmaxWithLoss"
  bottom: "ip3"
  bottom: "label"
  top: "loss"
}
I0401 01:13:45.902758   278 layer_factory.hpp:77] Creating layer imagepatch
I0401 01:13:46.279691   278 db_lmdb.cpp:35] Opened lmdb /workspace/withhost/code.sensors18/lmdb/patchPG2000qf95/train-lmdb
I0401 01:13:46.284277   278 net.cpp:84] Creating Layer imagepatch
I0401 01:13:46.284644   278 net.cpp:380] imagepatch -> data
I0401 01:13:46.284945   278 net.cpp:380] imagepatch -> label
I0401 01:13:46.285421   278 data_layer.cpp:45] output data size: 64,1,150,150
I0401 01:13:46.285842   278 net.cpp:122] Setting up imagepatch
I0401 01:13:46.286849   278 net.cpp:129] Top shape: 64 1 150 150 (1440000)
I0401 01:13:46.288902   278 net.cpp:129] Top shape: 64 (64)
I0401 01:13:46.291934   278 net.cpp:137] Memory required for data: 5760256
I0401 01:13:46.292731   278 layer_factory.hpp:77] Creating layer conv0
I0401 01:13:46.293474   278 net.cpp:84] Creating Layer conv0
I0401 01:13:46.294307   278 net.cpp:406] conv0 <- data
I0401 01:13:46.295105   278 net.cpp:380] conv0 -> conv0
I0401 01:13:46.295727   278 net.cpp:122] Setting up conv0
I0401 01:13:46.296502   278 net.cpp:129] Top shape: 64 3 75 75 (1080000)
I0401 01:13:46.297019   278 net.cpp:137] Memory required for data: 10080256
I0401 01:13:46.297721   278 layer_factory.hpp:77] Creating layer conv1
I0401 01:13:46.298440   278 net.cpp:84] Creating Layer conv1
I0401 01:13:46.299274   278 net.cpp:406] conv1 <- conv0
I0401 01:13:46.300212   278 net.cpp:380] conv1 -> conv1
I0401 01:13:46.300917   278 net.cpp:122] Setting up conv1
I0401 01:13:46.301537   278 net.cpp:129] Top shape: 64 8 75 75 (2880000)
I0401 01:13:46.301978   278 net.cpp:137] Memory required for data: 21600256
I0401 01:13:46.302729   278 layer_factory.hpp:77] Creating layer norm1
I0401 01:13:46.303258   278 net.cpp:84] Creating Layer norm1
I0401 01:13:46.303745   278 net.cpp:406] norm1 <- conv1
I0401 01:13:46.304319   278 net.cpp:367] norm1 -> conv1 (in-place)
I0401 01:13:46.305217   278 net.cpp:122] Setting up norm1
I0401 01:13:46.305856   278 net.cpp:129] Top shape: 64 8 75 75 (2880000)
I0401 01:13:46.306414   278 net.cpp:137] Memory required for data: 33120256
I0401 01:13:46.306836   278 layer_factory.hpp:77] Creating layer scale_conv1
I0401 01:13:46.307292   278 net.cpp:84] Creating Layer scale_conv1
I0401 01:13:46.307761   278 net.cpp:406] scale_conv1 <- conv1
I0401 01:13:46.308127   278 net.cpp:367] scale_conv1 -> conv1 (in-place)
I0401 01:13:46.308699   278 layer_factory.hpp:77] Creating layer scale_conv1
I0401 01:13:46.309150   278 net.cpp:122] Setting up scale_conv1
I0401 01:13:46.309677   278 net.cpp:129] Top shape: 64 8 75 75 (2880000)
I0401 01:13:46.310060   278 net.cpp:137] Memory required for data: 44640256
I0401 01:13:46.310618   278 layer_factory.hpp:77] Creating layer relu1
I0401 01:13:46.311012   278 net.cpp:84] Creating Layer relu1
I0401 01:13:46.311398   278 net.cpp:406] relu1 <- conv1
I0401 01:13:46.311767   278 net.cpp:367] relu1 -> conv1 (in-place)
I0401 01:13:46.312227   278 net.cpp:122] Setting up relu1
I0401 01:13:46.312625   278 net.cpp:129] Top shape: 64 8 75 75 (2880000)
I0401 01:13:46.313052   278 net.cpp:137] Memory required for data: 56160256
I0401 01:13:46.313684   278 layer_factory.hpp:77] Creating layer pool1
I0401 01:13:46.314218   278 net.cpp:84] Creating Layer pool1
I0401 01:13:46.314883   278 net.cpp:406] pool1 <- conv1
I0401 01:13:46.315344   278 net.cpp:380] pool1 -> pool1
I0401 01:13:46.315789   278 net.cpp:122] Setting up pool1
I0401 01:13:46.316532   278 net.cpp:129] Top shape: 64 8 37 37 (700928)
I0401 01:13:46.316993   278 net.cpp:137] Memory required for data: 58963968
I0401 01:13:46.317417   278 layer_factory.hpp:77] Creating layer conv2
I0401 01:13:46.317836   278 net.cpp:84] Creating Layer conv2
I0401 01:13:46.318380   278 net.cpp:406] conv2 <- pool1
I0401 01:13:46.318864   278 net.cpp:380] conv2 -> conv2
I0401 01:13:46.319270   278 net.cpp:122] Setting up conv2
I0401 01:13:46.319617   278 net.cpp:129] Top shape: 64 16 37 37 (1401856)
I0401 01:13:46.319981   278 net.cpp:137] Memory required for data: 64571392
I0401 01:13:46.320289   278 layer_factory.hpp:77] Creating layer norm2
I0401 01:13:46.320569   278 net.cpp:84] Creating Layer norm2
I0401 01:13:46.320888   278 net.cpp:406] norm2 <- conv2
I0401 01:13:46.321230   278 net.cpp:367] norm2 -> conv2 (in-place)
I0401 01:13:46.321586   278 net.cpp:122] Setting up norm2
I0401 01:13:46.321897   278 net.cpp:129] Top shape: 64 16 37 37 (1401856)
I0401 01:13:46.322254   278 net.cpp:137] Memory required for data: 70178816
I0401 01:13:46.322566   278 layer_factory.hpp:77] Creating layer scale_conv2
I0401 01:13:46.323017   278 net.cpp:84] Creating Layer scale_conv2
I0401 01:13:46.323467   278 net.cpp:406] scale_conv2 <- conv2
I0401 01:13:46.323787   278 net.cpp:367] scale_conv2 -> conv2 (in-place)
I0401 01:13:46.324131   278 layer_factory.hpp:77] Creating layer scale_conv2
I0401 01:13:46.324527   278 net.cpp:122] Setting up scale_conv2
I0401 01:13:46.325119   278 net.cpp:129] Top shape: 64 16 37 37 (1401856)
I0401 01:13:46.325527   278 net.cpp:137] Memory required for data: 75786240
I0401 01:13:46.326124   278 layer_factory.hpp:77] Creating layer relu2
I0401 01:13:46.326912   278 net.cpp:84] Creating Layer relu2
I0401 01:13:46.327646   278 net.cpp:406] relu2 <- conv2
I0401 01:13:46.328200   278 net.cpp:367] relu2 -> conv2 (in-place)
I0401 01:13:46.328819   278 net.cpp:122] Setting up relu2
I0401 01:13:46.329634   278 net.cpp:129] Top shape: 64 16 37 37 (1401856)
I0401 01:13:46.330307   278 net.cpp:137] Memory required for data: 81393664
I0401 01:13:46.331063   278 layer_factory.hpp:77] Creating layer pool2
I0401 01:13:46.331496   278 net.cpp:84] Creating Layer pool2
I0401 01:13:46.331863   278 net.cpp:406] pool2 <- conv2
I0401 01:13:46.332252   278 net.cpp:380] pool2 -> pool2
I0401 01:13:46.332636   278 net.cpp:122] Setting up pool2
I0401 01:13:46.333039   278 net.cpp:129] Top shape: 64 16 18 18 (331776)
I0401 01:13:46.333366   278 net.cpp:137] Memory required for data: 82720768
I0401 01:13:46.333982   278 layer_factory.hpp:77] Creating layer conv3
I0401 01:13:46.334342   278 net.cpp:84] Creating Layer conv3
I0401 01:13:46.334612   278 net.cpp:406] conv3 <- pool2
I0401 01:13:46.334915   278 net.cpp:380] conv3 -> conv3
I0401 01:13:46.335244   278 net.cpp:122] Setting up conv3
I0401 01:13:46.335522   278 net.cpp:129] Top shape: 64 32 18 18 (663552)
I0401 01:13:46.335814   278 net.cpp:137] Memory required for data: 85374976
I0401 01:13:46.336083   278 layer_factory.hpp:77] Creating layer norm3
I0401 01:13:46.336360   278 net.cpp:84] Creating Layer norm3
I0401 01:13:46.336669   278 net.cpp:406] norm3 <- conv3
I0401 01:13:46.336956   278 net.cpp:367] norm3 -> conv3 (in-place)
I0401 01:13:46.337249   278 net.cpp:122] Setting up norm3
I0401 01:13:46.337525   278 net.cpp:129] Top shape: 64 32 18 18 (663552)
I0401 01:13:46.337798   278 net.cpp:137] Memory required for data: 88029184
I0401 01:13:46.338078   278 layer_factory.hpp:77] Creating layer scale_conv3
I0401 01:13:46.338348   278 net.cpp:84] Creating Layer scale_conv3
I0401 01:13:46.338624   278 net.cpp:406] scale_conv3 <- conv3
I0401 01:13:46.338896   278 net.cpp:367] scale_conv3 -> conv3 (in-place)
I0401 01:13:46.339174   278 layer_factory.hpp:77] Creating layer scale_conv3
I0401 01:13:46.339468   278 net.cpp:122] Setting up scale_conv3
I0401 01:13:46.339745   278 net.cpp:129] Top shape: 64 32 18 18 (663552)
I0401 01:13:46.340039   278 net.cpp:137] Memory required for data: 90683392
I0401 01:13:46.340348   278 layer_factory.hpp:77] Creating layer relu3
I0401 01:13:46.340684   278 net.cpp:84] Creating Layer relu3
I0401 01:13:46.340963   278 net.cpp:406] relu3 <- conv3
I0401 01:13:46.341243   278 net.cpp:367] relu3 -> conv3 (in-place)
I0401 01:13:46.341517   278 net.cpp:122] Setting up relu3
I0401 01:13:46.341792   278 net.cpp:129] Top shape: 64 32 18 18 (663552)
I0401 01:13:46.342067   278 net.cpp:137] Memory required for data: 93337600
I0401 01:13:46.342339   278 layer_factory.hpp:77] Creating layer pool3
I0401 01:13:46.342626   278 net.cpp:84] Creating Layer pool3
I0401 01:13:46.342903   278 net.cpp:406] pool3 <- conv3
I0401 01:13:46.343154   278 net.cpp:380] pool3 -> pool3
I0401 01:13:46.343410   278 net.cpp:122] Setting up pool3
I0401 01:13:46.343691   278 net.cpp:129] Top shape: 64 32 9 9 (165888)
I0401 01:13:46.343969   278 net.cpp:137] Memory required for data: 94001152
I0401 01:13:46.344241   278 layer_factory.hpp:77] Creating layer conv4
I0401 01:13:46.344676   278 net.cpp:84] Creating Layer conv4
I0401 01:13:46.345012   278 net.cpp:406] conv4 <- pool3
I0401 01:13:46.345317   278 net.cpp:380] conv4 -> conv4
I0401 01:13:46.345803   278 net.cpp:122] Setting up conv4
I0401 01:13:46.346168   278 net.cpp:129] Top shape: 64 64 9 9 (331776)
I0401 01:13:46.346472   278 net.cpp:137] Memory required for data: 95328256
I0401 01:13:46.346735   278 layer_factory.hpp:77] Creating layer norm4
I0401 01:13:46.347034   278 net.cpp:84] Creating Layer norm4
I0401 01:13:46.347326   278 net.cpp:406] norm4 <- conv4
I0401 01:13:46.347626   278 net.cpp:367] norm4 -> conv4 (in-place)
I0401 01:13:46.347926   278 net.cpp:122] Setting up norm4
I0401 01:13:46.348215   278 net.cpp:129] Top shape: 64 64 9 9 (331776)
I0401 01:13:46.348510   278 net.cpp:137] Memory required for data: 96655360
I0401 01:13:46.348815   278 layer_factory.hpp:77] Creating layer scale_conv4
I0401 01:13:46.349103   278 net.cpp:84] Creating Layer scale_conv4
I0401 01:13:46.349386   278 net.cpp:406] scale_conv4 <- conv4
I0401 01:13:46.349690   278 net.cpp:367] scale_conv4 -> conv4 (in-place)
I0401 01:13:46.350019   278 layer_factory.hpp:77] Creating layer scale_conv4
I0401 01:13:46.350419   278 net.cpp:122] Setting up scale_conv4
I0401 01:13:46.350828   278 net.cpp:129] Top shape: 64 64 9 9 (331776)
I0401 01:13:46.351413   278 net.cpp:137] Memory required for data: 97982464
I0401 01:13:46.351889   278 layer_factory.hpp:77] Creating layer relu4
I0401 01:13:46.352463   278 net.cpp:84] Creating Layer relu4
I0401 01:13:46.352851   278 net.cpp:406] relu4 <- conv4
I0401 01:13:46.353183   278 net.cpp:367] relu4 -> conv4 (in-place)
I0401 01:13:46.353485   278 net.cpp:122] Setting up relu4
I0401 01:13:46.353806   278 net.cpp:129] Top shape: 64 64 9 9 (331776)
I0401 01:13:46.354094   278 net.cpp:137] Memory required for data: 99309568
I0401 01:13:46.354401   278 layer_factory.hpp:77] Creating layer pool4
I0401 01:13:46.354737   278 net.cpp:84] Creating Layer pool4
I0401 01:13:46.355024   278 net.cpp:406] pool4 <- conv4
I0401 01:13:46.355321   278 net.cpp:380] pool4 -> pool4
I0401 01:13:46.355617   278 net.cpp:122] Setting up pool4
I0401 01:13:46.355891   278 net.cpp:129] Top shape: 64 64 4 4 (65536)
I0401 01:13:46.356164   278 net.cpp:137] Memory required for data: 99571712
I0401 01:13:46.356427   278 layer_factory.hpp:77] Creating layer conv5
I0401 01:13:46.356858   278 net.cpp:84] Creating Layer conv5
I0401 01:13:46.357164   278 net.cpp:406] conv5 <- pool4
I0401 01:13:46.357481   278 net.cpp:380] conv5 -> conv5
I0401 01:13:46.357889   278 net.cpp:122] Setting up conv5
I0401 01:13:46.358218   278 net.cpp:129] Top shape: 64 128 4 4 (131072)
I0401 01:13:46.358515   278 net.cpp:137] Memory required for data: 100096000
I0401 01:13:46.358834   278 layer_factory.hpp:77] Creating layer norm5
I0401 01:13:46.359129   278 net.cpp:84] Creating Layer norm5
I0401 01:13:46.359422   278 net.cpp:406] norm5 <- conv5
I0401 01:13:46.359724   278 net.cpp:367] norm5 -> conv5 (in-place)
I0401 01:13:46.360132   278 net.cpp:122] Setting up norm5
I0401 01:13:46.360513   278 net.cpp:129] Top shape: 64 128 4 4 (131072)
I0401 01:13:46.360847   278 net.cpp:137] Memory required for data: 100620288
I0401 01:13:46.361114   278 layer_factory.hpp:77] Creating layer scale_conv5
I0401 01:13:46.361531   278 net.cpp:84] Creating Layer scale_conv5
I0401 01:13:46.361884   278 net.cpp:406] scale_conv5 <- conv5
I0401 01:13:46.362290   278 net.cpp:367] scale_conv5 -> conv5 (in-place)
I0401 01:13:46.362648   278 layer_factory.hpp:77] Creating layer scale_conv5
I0401 01:13:46.362982   278 net.cpp:122] Setting up scale_conv5
I0401 01:13:46.363337   278 net.cpp:129] Top shape: 64 128 4 4 (131072)
I0401 01:13:46.363768   278 net.cpp:137] Memory required for data: 101144576
I0401 01:13:46.364181   278 layer_factory.hpp:77] Creating layer relu5
I0401 01:13:46.364583   278 net.cpp:84] Creating Layer relu5
I0401 01:13:46.364892   278 net.cpp:406] relu5 <- conv5
I0401 01:13:46.365234   278 net.cpp:367] relu5 -> conv5 (in-place)
I0401 01:13:46.365638   278 net.cpp:122] Setting up relu5
I0401 01:13:46.365979   278 net.cpp:129] Top shape: 64 128 4 4 (131072)
I0401 01:13:46.366248   278 net.cpp:137] Memory required for data: 101668864
I0401 01:13:46.366524   278 layer_factory.hpp:77] Creating layer pool5
I0401 01:13:46.366816   278 net.cpp:84] Creating Layer pool5
I0401 01:13:46.367136   278 net.cpp:406] pool5 <- conv5
I0401 01:13:46.367429   278 net.cpp:380] pool5 -> pool5
I0401 01:13:46.367720   278 net.cpp:122] Setting up pool5
I0401 01:13:46.367995   278 net.cpp:129] Top shape: 64 128 1 1 (8192)
I0401 01:13:46.368264   278 net.cpp:137] Memory required for data: 101701632
I0401 01:13:46.368552   278 layer_factory.hpp:77] Creating layer ip3
I0401 01:13:46.368880   278 net.cpp:84] Creating Layer ip3
I0401 01:13:46.369154   278 net.cpp:406] ip3 <- pool5
I0401 01:13:46.369433   278 net.cpp:380] ip3 -> ip3
I0401 01:13:46.369725   278 net.cpp:122] Setting up ip3
I0401 01:13:46.370010   278 net.cpp:129] Top shape: 64 2 (128)
I0401 01:13:46.370288   278 net.cpp:137] Memory required for data: 101702144
I0401 01:13:46.370612   278 layer_factory.hpp:77] Creating layer loss
I0401 01:13:46.370901   278 net.cpp:84] Creating Layer loss
I0401 01:13:46.371206   278 net.cpp:406] loss <- ip3
I0401 01:13:46.371490   278 net.cpp:406] loss <- label
I0401 01:13:46.371791   278 net.cpp:380] loss -> loss
I0401 01:13:46.372084   278 layer_factory.hpp:77] Creating layer loss
…
I0401 01:13:46.385471   278 solver.cpp:172] Creating test net (#0) specified by net file: train_new.prototxt
I0401 01:13:46.385752   278 net.cpp:294] The NetState phase (1) differed from the phase (0) specified by a rule in layer imagepatch
I0401 01:13:46.386155   278 net.cpp:51] Initializing net from parameters: 
name: "ForensicNet"
state {
  phase: TEST
}
layer {
  name: "imagepatch"
  type: "Data"
  top: "data"
  top: "label"
  include {
    phase: TEST
  }
  data_param {
    source: "/workspace/withhost/code.sensors18/lmdb/patchPG2000qf95/val-lmdb"
    batch_size: 1
    backend: LMDB
  }
}
layer {
  name: "conv0"
  type: "Convolution"
  bottom: "data"
  top: "conv0"
  param {
    lr_mult: 0
    decay_mult: 0
  }
  convolution_param {
    num_output: 3
    bias_term: false
    pad: 2
    kernel_size: 5
    stride: 2
    weight_filler {
      type: "qian"
    }
  }
}
layer {
  name: "conv1"
  type: "Convolution"
  bottom: "conv0"
  top: "conv1"
  param {
    lr_mult: 1
    decay_mult: 0
  }
  convolution_param {
    num_output: 8
    bias_term: false
    pad: 2
    kernel_size: 5
    stride: 1
    weight_filler {
      type: "gaussian"
      std: 0.01
    }
  }
}
layer {
  name: "norm1"
  type: "BatchNorm"
  bottom: "conv1"
  top: "conv1"
  param {
    lr_mult: 0
    decay_mult: 0
  }
  param {
    lr_mult: 0
    decay_mult: 0
  }
  param {
    lr_mult: 0
    decay_mult: 0
  }
  batch_norm_param {
    moving_average_fraction: 0.05
  }
}
layer {
  name: "scale_conv1"
  type: "Scale"
  bottom: "conv1"
  top: "conv1"
  scale_param {
    bias_term: true
  }
}
layer {
  name: "relu1"
  type: "ReLU"
  bottom: "conv1"
  top: "conv1"
}
layer {
  name: "pool1"
  type: "Pooling"
  bottom: "conv1"
  top: "pool1"
  pooling_param {
    pool: AVE
    kernel_size: 5
    stride: 2
    pad: 1
    engine: CAFFE
  }
}
layer {
  name: "conv2"
  type: "Convolution"
  bottom: "pool1"
  top: "conv2"
  param {
    lr_mult: 1
    decay_mult: 0
  }
  convolution_param {
    num_output: 16
    bias_term: false
    pad: 2
    kernel_size: 5
    stride: 1
    weight_filler {
      type: "gaussian"
      std: 0.01
    }
  }
}
layer {
  name: "norm2"
  type: "BatchNorm"
  bottom: "conv2"
  top: "conv2"
  param {
    lr_mult: 0
    decay_mult: 0
  }
  param {
    lr_mult: 0
    decay_mult: 0
  }
  param {
    lr_mult: 0
    decay_mult: 0
  }
  batch_norm_param {
    moving_average_fraction: 0.05
  }
}
layer {
  name: "scale_conv2"
  type: "Scale"
  bottom: "conv2"
  top: "conv2"
  scale_param {
    bias_term: true
  }
}
layer {
  name: "relu2"
  type: "ReLU"
  bottom: "conv2"
  top: "conv2"
}
layer {
  name: "pool2"
  type: "Pooling"
  bottom: "conv2"
  top: "pool2"
  pooling_param {
    pool: AVE
    kernel_size: 5
    stride: 2
    pad: 1
    engine: CAFFE
  }
}
layer {
  name: "conv3"
  type: "Convolution"
  bottom: "pool2"
  top: "conv3"
  param {
    lr_mult: 1
    decay_mult: 0
  }
  convolution_param {
    num_output: 32
    bias_term: false
    pad: 1
    kernel_size: 3
    stride: 1
    weight_filler {
      type: "gaussian"
      std: 0.01
    }
  }
}
layer {
  name: "norm3"
  type: "BatchNorm"
  bottom: "conv3"
  top: "conv3"
  param {
    lr_mult: 0
    decay_mult: 0
  }
  param {
    lr_mult: 0
    decay_mult: 0
  }
  param {
    lr_mult: 0
    decay_mult: 0
  }
  batch_norm_param {
    moving_average_fraction: 0.05
  }
}
layer {
  name: "scale_conv3"
  type: "Scale"
  bottom: "conv3"
  top: "conv3"
  scale_param {
    bias_term: true
  }
}
layer {
  name: "relu3"
  type: "ReLU"
  bottom: "conv3"
  top: "conv3"
}
layer {
  name: "pool3"
  type: "Pooling"
  bottom: "conv3"
  top: "pool3"
  pooling_param {
    pool: AVE
    kernel_size: 5
    stride: 2
    pad: 1
    engine: CAFFE
  }
}
layer {
  name: "conv4"
  type: "Convolution"
  bottom: "pool3"
  top: "conv4"
  param {
    lr_mult: 1
    decay_mult: 0
  }
  convolution_param {
    num_output: 64
    bias_term: false
    pad: 1
    kernel_size: 3
    stride: 1
    weight_filler {
      type: "gaussian"
      std: 0.01
    }
  }
}
layer {
  name: "norm4"
  type: "BatchNorm"
  bottom: "conv4"
  top: "conv4"
  param {
    lr_mult: 0
    decay_mult: 0
  }
  param {
    lr_mult: 0
    decay_mult: 0
  }
  param {
    lr_mult: 0
    decay_mult: 0
  }
  batch_norm_param {
    moving_average_fraction: 0.05
  }
}
layer {
  name: "scale_conv4"
  type: "Scale"
  bottom: "conv4"
  top: "conv4"
  scale_param {
    bias_term: true
  }
}
layer {
  name: "relu4"
  type: "ReLU"
  bottom: "conv4"
  top: "conv4"
}
layer {
  name: "pool4"
  type: "Pooling"
  bottom: "conv4"
  top: "pool4"
  pooling_param {
    pool: AVE
    kernel_size: 5
    stride: 2
    pad: 1
    engine: CAFFE
  }
}
layer {
  name: "conv5"
  type: "Convolution"
  bottom: "pool4"
  top: "conv5"
  param {
    lr_mult: 1
    decay_mult: 0
  }
  convolution_param {
    num_output: 128
    bias_term: false
    kernel_size: 1
    stride: 1
    weight_filler {
      type: "gaussian"
      std: 0.01
    }
  }
}
layer {
  name: "norm5"
  type: "BatchNorm"
  bottom: "conv5"
  top: "conv5"
  param {
    lr_mult: 0
    decay_mult: 0
  }
  param {
    lr_mult: 0
    decay_mult: 0
  }
  param {
    lr_mult: 0
    decay_mult: 0
  }
  batch_norm_param {
    moving_average_fraction: 0.05
  }
}
layer {
  name: "scale_conv5"
  type: "Scale"
  bottom: "conv5"
  top: "conv5"
  scale_param {
    bias_term: true
  }
}
layer {
  name: "relu5"
  type: "ReLU"
  bottom: "conv5"
  top: "conv5"
}
layer {
  name: "pool5"
  type: "Pooling"
  bottom: "conv5"
  top: "pool5"
  pooling_param {
    pool: AVE
    kernel_size: 4
    stride: 1
    engine: CAFFE
  }
}
layer {
  name: "ip3"
  type: "InnerProduct"
  bottom: "pool5"
  top: "ip3"
  param {
    lr_mult: 1
  }
  param {
    lr_mult: 2
  }
  inner_product_param {
    num_output: 2
    weight_filler {
      type: "xavier"
    }
    bias_filler {
      type: "constant"
    }
  }
}
layer {
  name: "accuracy"
  type: "Accuracy"
  bottom: "ip3"
  bottom: "label"
  top: "accuracy"
  include {
    phase: TEST
  }
}
layer {
  name: "loss"
  type: "SoftmaxWithLoss"
  bottom: "ip3"
  bottom: "label"
  top: "loss"
}
I0401 01:13:46.386575   278 layer_factory.hpp:77] Creating layer imagepatch
I0401 01:13:46.492362   278 db_lmdb.cpp:35] Opened lmdb /workspace/withhost/code.sensors18/lmdb/patchPG2000qf95/val-lmdb
I0401 01:13:46.493521   278 net.cpp:84] Creating Layer imagepatch
I0401 01:13:46.493806   278 net.cpp:380] imagepatch -> data
I0401 01:13:46.494082   278 net.cpp:380] imagepatch -> label
I0401 01:13:46.494433   278 data_layer.cpp:45] output data size: 1,1,150,150
I0401 01:13:46.494890   278 net.cpp:122] Setting up imagepatch
I0401 01:13:46.495399   278 net.cpp:129] Top shape: 1 1 150 150 (22500)
I0401 01:13:46.495674   278 net.cpp:129] Top shape: 1 (1)
I0401 01:13:46.496063   278 net.cpp:137] Memory required for data: 90004
I0401 01:13:46.496327   278 layer_factory.hpp:77] Creating layer label_imagepatch_1_split
I0401 01:13:46.497090   278 net.cpp:84] Creating Layer label_imagepatch_1_split
I0401 01:13:46.497354   278 net.cpp:406] label_imagepatch_1_split <- label
I0401 01:13:46.497637   278 net.cpp:380] label_imagepatch_1_split -> label_imagepatch_1_split_0
I0401 01:13:46.497956   278 net.cpp:380] label_imagepatch_1_split -> label_imagepatch_1_split_1
I0401 01:13:46.498265   278 net.cpp:122] Setting up label_imagepatch_1_split
I0401 01:13:46.498535   278 net.cpp:129] Top shape: 1 (1)
I0401 01:13:46.498828   278 net.cpp:129] Top shape: 1 (1)
I0401 01:13:46.499121   278 net.cpp:137] Memory required for data: 90012
I0401 01:13:46.499385   278 layer_factory.hpp:77] Creating layer conv0
I0401 01:13:46.499722   278 net.cpp:84] Creating Layer conv0
I0401 01:13:46.499971   278 net.cpp:406] conv0 <- data
I0401 01:13:46.500226   278 net.cpp:380] conv0 -> conv0
I0401 01:13:46.500499   278 net.cpp:122] Setting up conv0
I0401 01:13:46.500782   278 net.cpp:129] Top shape: 1 3 75 75 (16875)
I0401 01:13:46.501101   278 net.cpp:137] Memory required for data: 157512
I0401 01:13:46.501402   278 layer_factory.hpp:77] Creating layer conv1
I0401 01:13:46.501698   278 net.cpp:84] Creating Layer conv1
I0401 01:13:46.501958   278 net.cpp:406] conv1 <- conv0
I0401 01:13:46.502238   278 net.cpp:380] conv1 -> conv1
I0401 01:13:46.502549   278 net.cpp:122] Setting up conv1
I0401 01:13:46.502830   278 net.cpp:129] Top shape: 1 8 75 75 (45000)
I0401 01:13:46.503098   278 net.cpp:137] Memory required for data: 337512
I0401 01:13:46.503386   278 layer_factory.hpp:77] Creating layer norm1
I0401 01:13:46.503672   278 net.cpp:84] Creating Layer norm1
I0401 01:13:46.503932   278 net.cpp:406] norm1 <- conv1
I0401 01:13:46.504202   278 net.cpp:367] norm1 -> conv1 (in-place)
I0401 01:13:46.504477   278 net.cpp:122] Setting up norm1
I0401 01:13:46.504715   278 net.cpp:129] Top shape: 1 8 75 75 (45000)
I0401 01:13:46.505017   278 net.cpp:137] Memory required for data: 517512
I0401 01:13:46.505302   278 layer_factory.hpp:77] Creating layer scale_conv1
I0401 01:13:46.505599   278 net.cpp:84] Creating Layer scale_conv1
I0401 01:13:46.505879   278 net.cpp:406] scale_conv1 <- conv1
I0401 01:13:46.506191   278 net.cpp:367] scale_conv1 -> conv1 (in-place)
I0401 01:13:46.506498   278 layer_factory.hpp:77] Creating layer scale_conv1
I0401 01:13:46.506884   278 net.cpp:122] Setting up scale_conv1
I0401 01:13:46.507130   278 net.cpp:129] Top shape: 1 8 75 75 (45000)
I0401 01:13:46.507392   278 net.cpp:137] Memory required for data: 697512
I0401 01:13:46.507694   278 layer_factory.hpp:77] Creating layer relu1
I0401 01:13:46.507966   278 net.cpp:84] Creating Layer relu1
I0401 01:13:46.508235   278 net.cpp:406] relu1 <- conv1
I0401 01:13:46.508508   278 net.cpp:367] relu1 -> conv1 (in-place)
I0401 01:13:46.508788   278 net.cpp:122] Setting up relu1
I0401 01:13:46.509054   278 net.cpp:129] Top shape: 1 8 75 75 (45000)
I0401 01:13:46.509330   278 net.cpp:137] Memory required for data: 877512
I0401 01:13:46.509605   278 layer_factory.hpp:77] Creating layer pool1
I0401 01:13:46.509881   278 net.cpp:84] Creating Layer pool1
I0401 01:13:46.510128   278 net.cpp:406] pool1 <- conv1
I0401 01:13:46.510394   278 net.cpp:380] pool1 -> pool1
I0401 01:13:46.510715   278 net.cpp:122] Setting up pool1
I0401 01:13:46.511001   278 net.cpp:129] Top shape: 1 8 37 37 (10952)
I0401 01:13:46.511262   278 net.cpp:137] Memory required for data: 921320
I0401 01:13:46.511579   278 layer_factory.hpp:77] Creating layer conv2
I0401 01:13:46.511879   278 net.cpp:84] Creating Layer conv2
I0401 01:13:46.512159   278 net.cpp:406] conv2 <- pool1
I0401 01:13:46.512447   278 net.cpp:380] conv2 -> conv2
I0401 01:13:46.512809   278 net.cpp:122] Setting up conv2
I0401 01:13:46.513123   278 net.cpp:129] Top shape: 1 16 37 37 (21904)
I0401 01:13:46.513422   278 net.cpp:137] Memory required for data: 1008936
I0401 01:13:46.513742   278 layer_factory.hpp:77] Creating layer norm2
I0401 01:13:46.514019   278 net.cpp:84] Creating Layer norm2
I0401 01:13:46.514297   278 net.cpp:406] norm2 <- conv2
I0401 01:13:46.514609   278 net.cpp:367] norm2 -> conv2 (in-place)
I0401 01:13:46.514891   278 net.cpp:122] Setting up norm2
I0401 01:13:46.515194   278 net.cpp:129] Top shape: 1 16 37 37 (21904)
I0401 01:13:46.515461   278 net.cpp:137] Memory required for data: 1096552
I0401 01:13:46.515738   278 layer_factory.hpp:77] Creating layer scale_conv2
I0401 01:13:46.516012   278 net.cpp:84] Creating Layer scale_conv2
I0401 01:13:46.516294   278 net.cpp:406] scale_conv2 <- conv2
I0401 01:13:46.516600   278 net.cpp:367] scale_conv2 -> conv2 (in-place)
I0401 01:13:46.516885   278 layer_factory.hpp:77] Creating layer scale_conv2
I0401 01:13:46.517180   278 net.cpp:122] Setting up scale_conv2
I0401 01:13:46.517685   278 net.cpp:129] Top shape: 1 16 37 37 (21904)
I0401 01:13:46.517958   278 net.cpp:137] Memory required for data: 1184168
I0401 01:13:46.518231   278 layer_factory.hpp:77] Creating layer relu2
I0401 01:13:46.518496   278 net.cpp:84] Creating Layer relu2
I0401 01:13:46.518836   278 net.cpp:406] relu2 <- conv2
I0401 01:13:46.519119   278 net.cpp:367] relu2 -> conv2 (in-place)
I0401 01:13:46.519392   278 net.cpp:122] Setting up relu2
I0401 01:13:46.519665   278 net.cpp:129] Top shape: 1 16 37 37 (21904)
I0401 01:13:46.519942   278 net.cpp:137] Memory required for data: 1271784
I0401 01:13:46.520210   278 layer_factory.hpp:77] Creating layer pool2
I0401 01:13:46.520498   278 net.cpp:84] Creating Layer pool2
I0401 01:13:46.520803   278 net.cpp:406] pool2 <- conv2
I0401 01:13:46.521081   278 net.cpp:380] pool2 -> pool2
I0401 01:13:46.521337   278 net.cpp:122] Setting up pool2
I0401 01:13:46.521620   278 net.cpp:129] Top shape: 1 16 18 18 (5184)
I0401 01:13:46.521893   278 net.cpp:137] Memory required for data: 1292520
I0401 01:13:46.522167   278 layer_factory.hpp:77] Creating layer conv3
I0401 01:13:46.522447   278 net.cpp:84] Creating Layer conv3
I0401 01:13:46.522732   278 net.cpp:406] conv3 <- pool2
I0401 01:13:46.523006   278 net.cpp:380] conv3 -> conv3
I0401 01:13:46.523355   278 net.cpp:122] Setting up conv3
I0401 01:13:46.523630   278 net.cpp:129] Top shape: 1 32 18 18 (10368)
I0401 01:13:46.523896   278 net.cpp:137] Memory required for data: 1333992
I0401 01:13:46.524168   278 layer_factory.hpp:77] Creating layer norm3
I0401 01:13:46.524484   278 net.cpp:84] Creating Layer norm3
I0401 01:13:46.524741   278 net.cpp:406] norm3 <- conv3
I0401 01:13:46.525012   278 net.cpp:367] norm3 -> conv3 (in-place)
I0401 01:13:46.525295   278 net.cpp:122] Setting up norm3
I0401 01:13:46.525596   278 net.cpp:129] Top shape: 1 32 18 18 (10368)
I0401 01:13:46.525863   278 net.cpp:137] Memory required for data: 1375464
I0401 01:13:46.526140   278 layer_factory.hpp:77] Creating layer scale_conv3
I0401 01:13:46.526412   278 net.cpp:84] Creating Layer scale_conv3
I0401 01:13:46.526710   278 net.cpp:406] scale_conv3 <- conv3
I0401 01:13:46.526998   278 net.cpp:367] scale_conv3 -> conv3 (in-place)
I0401 01:13:46.527281   278 layer_factory.hpp:77] Creating layer scale_conv3
I0401 01:13:46.527608   278 net.cpp:122] Setting up scale_conv3
I0401 01:13:46.527870   278 net.cpp:129] Top shape: 1 32 18 18 (10368)
I0401 01:13:46.528136   278 net.cpp:137] Memory required for data: 1416936
I0401 01:13:46.528434   278 layer_factory.hpp:77] Creating layer relu3
I0401 01:13:46.528726   278 net.cpp:84] Creating Layer relu3
I0401 01:13:46.528987   278 net.cpp:406] relu3 <- conv3
I0401 01:13:46.529297   278 net.cpp:367] relu3 -> conv3 (in-place)
I0401 01:13:46.529615   278 net.cpp:122] Setting up relu3
I0401 01:13:46.529922   278 net.cpp:129] Top shape: 1 32 18 18 (10368)
I0401 01:13:46.530223   278 net.cpp:137] Memory required for data: 1458408
I0401 01:13:46.530500   278 layer_factory.hpp:77] Creating layer pool3
I0401 01:13:46.530824   278 net.cpp:84] Creating Layer pool3
I0401 01:13:46.531093   278 net.cpp:406] pool3 <- conv3
I0401 01:13:46.531373   278 net.cpp:380] pool3 -> pool3
I0401 01:13:46.531725   278 net.cpp:122] Setting up pool3
I0401 01:13:46.531991   278 net.cpp:129] Top shape: 1 32 9 9 (2592)
I0401 01:13:46.532248   278 net.cpp:137] Memory required for data: 1468776
I0401 01:13:46.532480   278 layer_factory.hpp:77] Creating layer conv4
I0401 01:13:46.532768   278 net.cpp:84] Creating Layer conv4
I0401 01:13:46.533073   278 net.cpp:406] conv4 <- pool3
I0401 01:13:46.533361   278 net.cpp:380] conv4 -> conv4
I0401 01:13:46.533823   278 net.cpp:122] Setting up conv4
I0401 01:13:46.534088   278 net.cpp:129] Top shape: 1 64 9 9 (5184)
I0401 01:13:46.534349   278 net.cpp:137] Memory required for data: 1489512
I0401 01:13:46.534623   278 layer_factory.hpp:77] Creating layer norm4
I0401 01:13:46.534896   278 net.cpp:84] Creating Layer norm4
I0401 01:13:46.535171   278 net.cpp:406] norm4 <- conv4
I0401 01:13:46.535446   278 net.cpp:367] norm4 -> conv4 (in-place)
I0401 01:13:46.535727   278 net.cpp:122] Setting up norm4
I0401 01:13:46.535996   278 net.cpp:129] Top shape: 1 64 9 9 (5184)
I0401 01:13:46.536262   278 net.cpp:137] Memory required for data: 1510248
I0401 01:13:46.536535   278 layer_factory.hpp:77] Creating layer scale_conv4
I0401 01:13:46.536818   278 net.cpp:84] Creating Layer scale_conv4
I0401 01:13:46.537087   278 net.cpp:406] scale_conv4 <- conv4
I0401 01:13:46.537379   278 net.cpp:367] scale_conv4 -> conv4 (in-place)
I0401 01:13:46.537750   278 layer_factory.hpp:77] Creating layer scale_conv4
I0401 01:13:46.538137   278 net.cpp:122] Setting up scale_conv4
I0401 01:13:46.538414   278 net.cpp:129] Top shape: 1 64 9 9 (5184)
I0401 01:13:46.538708   278 net.cpp:137] Memory required for data: 1530984
I0401 01:13:46.538978   278 layer_factory.hpp:77] Creating layer relu4
I0401 01:13:46.539247   278 net.cpp:84] Creating Layer relu4
I0401 01:13:46.539535   278 net.cpp:406] relu4 <- conv4
I0401 01:13:46.539816   278 net.cpp:367] relu4 -> conv4 (in-place)
I0401 01:13:46.540089   278 net.cpp:122] Setting up relu4
I0401 01:13:46.540349   278 net.cpp:129] Top shape: 1 64 9 9 (5184)
I0401 01:13:46.540627   278 net.cpp:137] Memory required for data: 1551720
I0401 01:13:46.540894   278 layer_factory.hpp:77] Creating layer pool4
I0401 01:13:46.541167   278 net.cpp:84] Creating Layer pool4
I0401 01:13:46.541436   278 net.cpp:406] pool4 <- conv4
I0401 01:13:46.541728   278 net.cpp:380] pool4 -> pool4
I0401 01:13:46.542003   278 net.cpp:122] Setting up pool4
I0401 01:13:46.542315   278 net.cpp:129] Top shape: 1 64 4 4 (1024)
I0401 01:13:46.542593   278 net.cpp:137] Memory required for data: 1555816
I0401 01:13:46.542863   278 layer_factory.hpp:77] Creating layer conv5
I0401 01:13:46.543138   278 net.cpp:84] Creating Layer conv5
I0401 01:13:46.543407   278 net.cpp:406] conv5 <- pool4
I0401 01:13:46.543725   278 net.cpp:380] conv5 -> conv5
I0401 01:13:46.544087   278 net.cpp:122] Setting up conv5
I0401 01:13:46.544358   278 net.cpp:129] Top shape: 1 128 4 4 (2048)
I0401 01:13:46.544670   278 net.cpp:137] Memory required for data: 1564008
I0401 01:13:46.544957   278 layer_factory.hpp:77] Creating layer norm5
I0401 01:13:46.545255   278 net.cpp:84] Creating Layer norm5
I0401 01:13:46.545519   278 net.cpp:406] norm5 <- conv5
I0401 01:13:46.545830   278 net.cpp:367] norm5 -> conv5 (in-place)
I0401 01:13:46.546155   278 net.cpp:122] Setting up norm5
I0401 01:13:46.546473   278 net.cpp:129] Top shape: 1 128 4 4 (2048)
I0401 01:13:46.546777   278 net.cpp:137] Memory required for data: 1572200
I0401 01:13:46.547070   278 layer_factory.hpp:77] Creating layer scale_conv5
I0401 01:13:46.547365   278 net.cpp:84] Creating Layer scale_conv5
I0401 01:13:46.547691   278 net.cpp:406] scale_conv5 <- conv5
I0401 01:13:46.547971   278 net.cpp:367] scale_conv5 -> conv5 (in-place)
I0401 01:13:46.548301   278 layer_factory.hpp:77] Creating layer scale_conv5
I0401 01:13:46.548612   278 net.cpp:122] Setting up scale_conv5
I0401 01:13:46.548864   278 net.cpp:129] Top shape: 1 128 4 4 (2048)
I0401 01:13:46.549130   278 net.cpp:137] Memory required for data: 1580392
I0401 01:13:46.549398   278 layer_factory.hpp:77] Creating layer relu5
I0401 01:13:46.549736   278 net.cpp:84] Creating Layer relu5
I0401 01:13:46.550002   278 net.cpp:406] relu5 <- conv5
I0401 01:13:46.550269   278 net.cpp:367] relu5 -> conv5 (in-place)
I0401 01:13:46.550598   278 net.cpp:122] Setting up relu5
I0401 01:13:46.550900   278 net.cpp:129] Top shape: 1 128 4 4 (2048)
I0401 01:13:46.551165   278 net.cpp:137] Memory required for data: 1588584
I0401 01:13:46.551430   278 layer_factory.hpp:77] Creating layer pool5
I0401 01:13:46.551693   278 net.cpp:84] Creating Layer pool5
I0401 01:13:46.551957   278 net.cpp:406] pool5 <- conv5
I0401 01:13:46.552243   278 net.cpp:380] pool5 -> pool5
I0401 01:13:46.552510   278 net.cpp:122] Setting up pool5
I0401 01:13:46.552784   278 net.cpp:129] Top shape: 1 128 1 1 (128)
I0401 01:13:46.553043   278 net.cpp:137] Memory required for data: 1589096
I0401 01:13:46.553311   278 layer_factory.hpp:77] Creating layer ip3
I0401 01:13:46.553589   278 net.cpp:84] Creating Layer ip3
I0401 01:13:46.553859   278 net.cpp:406] ip3 <- pool5
I0401 01:13:46.554128   278 net.cpp:380] ip3 -> ip3
I0401 01:13:46.554414   278 net.cpp:122] Setting up ip3
I0401 01:13:46.554680   278 net.cpp:129] Top shape: 1 2 (2)
I0401 01:13:46.554942   278 net.cpp:137] Memory required for data: 1589104
I0401 01:13:46.555215   278 layer_factory.hpp:77] Creating layer ip3_ip3_0_split
I0401 01:13:46.555475   278 net.cpp:84] Creating Layer ip3_ip3_0_split
I0401 01:13:46.555737   278 net.cpp:406] ip3_ip3_0_split <- ip3
I0401 01:13:46.556011   278 net.cpp:380] ip3_ip3_0_split -> ip3_ip3_0_split_0
I0401 01:13:46.556288   278 net.cpp:380] ip3_ip3_0_split -> ip3_ip3_0_split_1
I0401 01:13:46.556548   278 net.cpp:122] Setting up ip3_ip3_0_split
I0401 01:13:46.556825   278 net.cpp:129] Top shape: 1 2 (2)
I0401 01:13:46.557088   278 net.cpp:129] Top shape: 1 2 (2)
I0401 01:13:46.557349   278 net.cpp:137] Memory required for data: 1589120
I0401 01:13:46.557615   278 layer_factory.hpp:77] Creating layer accuracy
I0401 01:13:46.558039   278 net.cpp:84] Creating Layer accuracy
I0401 01:13:46.558310   278 net.cpp:406] accuracy <- ip3_ip3_0_split_0
I0401 01:13:46.558583   278 net.cpp:406] accuracy <- label_imagepatch_1_split_0
I0401 01:13:46.558856   278 net.cpp:380] accuracy -> accuracy
…
