…
I0331 03:52:58.819339    25 net.cpp:294] The NetState phase (0) differed from the phase (1) specified by a rule in layer accuracy
I0331 03:52:58.819792    25 net.cpp:51] Initializing net from parameters: 
name: "ForensicNet"
state {
  phase: TRAIN
  level: 0
  stage: ""
}
layer {
  name: "imagepatch"
  type: "Data"
  top: "data"
  top: "label"
  include {
    phase: TRAIN
  }
  transform_param {
    mirror: true
  }
  data_param {
    source: "/workspace/withhost/code.sensors18/lmdb/patchPG2000qf95/train-lmdb"
    batch_size: 64
    backend: LMDB
  }
}
layer {
  name: "conv0"
  type: "Convolution"
  bottom: "data"
  top: "conv0"
  param {
    lr_mult: 0
    decay_mult: 0
  }
  convolution_param {
    num_output: 3
    bias_term: false
    pad: 2
    kernel_size: 5
    stride: 2
    weight_filler {
      type: "qian"
    }
  }
}
layer {
  name: "conv1"
  type: "Convolution"
  bottom: "conv0"
  top: "conv1"
  param {
    lr_mult: 1
    decay_mult: 0
  }
  convolution_param {
    num_output: 8
    bias_term: false
    pad: 2
    kernel_size: 5
    stride: 1
    weight_filler {
      type: "gaussian"
      std: 0.01
    }
  }
}
layer {
  name: "norm1"
  type: "BatchNorm"
  bottom: "conv1"
  top: "conv1"
  param {
    lr_mult: 0
    decay_mult: 0
  }
  param {
    lr_mult: 0
    decay_mult: 0
  }
  param {
    lr_mult: 0
    decay_mult: 0
  }
  batch_norm_param {
    moving_average_fraction: 0.05
  }
}
layer {
  name: "scale_conv1"
  type: "Scale"
  bottom: "conv1"
  top: "conv1"
  scale_param {
    bias_term: true
  }
}
layer {
  name: "relu1"
  type: "ReLU"
  bottom: "conv1"
  top: "conv1"
}
layer {
  name: "pool1"
  type: "Pooling"
  bottom: "conv1"
  top: "pool1"
  pooling_param {
    pool: AVE
    kernel_size: 5
    stride: 2
    pad: 1
    engine: CAFFE
  }
}
layer {
  name: "conv2"
  type: "Convolution"
  bottom: "pool1"
  top: "conv2"
  param {
    lr_mult: 1
    decay_mult: 0
  }
  convolution_param {
    num_output: 16
    bias_term: false
    pad: 2
    kernel_size: 5
    stride: 1
    weight_filler {
      type: "gaussian"
      std: 0.01
    }
  }
}
layer {
  name: "norm2"
  type: "BatchNorm"
  bottom: "conv2"
  top: "conv2"
  param {
    lr_mult: 0
    decay_mult: 0
  }
  param {
    lr_mult: 0
    decay_mult: 0
  }
  param {
    lr_mult: 0
    decay_mult: 0
  }
  batch_norm_param {
    moving_average_fraction: 0.05
  }
}
layer {
  name: "scale_conv2"
  type: "Scale"
  bottom: "conv2"
  top: "conv2"
  scale_param {
    bias_term: true
  }
}
layer {
  name: "relu2"
  type: "ReLU"
  bottom: "conv2"
  top: "conv2"
}
layer {
  name: "pool2"
  type: "Pooling"
  bottom: "conv2"
  top: "pool2"
  pooling_param {
    pool: AVE
    kernel_size: 5
    stride: 2
    pad: 1
    engine: CAFFE
  }
}
layer {
  name: "conv3"
  type: "Convolution"
  bottom: "pool2"
  top: "conv3"
  param {
    lr_mult: 1
    decay_mult: 0
  }
  convolution_param {
    num_output: 32
    bias_term: false
    pad: 1
    kernel_size: 3
    stride: 1
    weight_filler {
      type: "gaussian"
      std: 0.01
    }
  }
}
layer {
  name: "norm3"
  type: "BatchNorm"
  bottom: "conv3"
  top: "conv3"
  param {
    lr_mult: 0
    decay_mult: 0
  }
  param {
    lr_mult: 0
    decay_mult: 0
  }
  param {
    lr_mult: 0
    decay_mult: 0
  }
  batch_norm_param {
    moving_average_fraction: 0.05
  }
}
layer {
  name: "scale_conv3"
  type: "Scale"
  bottom: "conv3"
  top: "conv3"
  scale_param {
    bias_term: true
  }
}
layer {
  name: "relu3"
  type: "ReLU"
  bottom: "conv3"
  top: "conv3"
}
layer {
  name: "pool3"
  type: "Pooling"
  bottom: "conv3"
  top: "pool3"
  pooling_param {
    pool: AVE
    kernel_size: 5
    stride: 2
    pad: 1
    engine: CAFFE
  }
}
layer {
  name: "conv4"
  type: "Convolution"
  bottom: "pool3"
  top: "conv4"
  param {
    lr_mult: 1
    decay_mult: 0
  }
  convolution_param {
    num_output: 64
    bias_term: false
    pad: 1
    kernel_size: 3
    stride: 1
    weight_filler {
      type: "gaussian"
      std: 0.01
    }
  }
}
layer {
  name: "norm4"
  type: "BatchNorm"
  bottom: "conv4"
  top: "conv4"
  param {
    lr_mult: 0
    decay_mult: 0
  }
  param {
    lr_mult: 0
    decay_mult: 0
  }
  param {
    lr_mult: 0
    decay_mult: 0
  }
  batch_norm_param {
    moving_average_fraction: 0.05
  }
}
layer {
  name: "scale_conv4"
  type: "Scale"
  bottom: "conv4"
  top: "conv4"
  scale_param {
    bias_term: true
  }
}
layer {
  name: "relu4"
  type: "ReLU"
  bottom: "conv4"
  top: "conv4"
}
layer {
  name: "pool4"
  type: "Pooling"
  bottom: "conv4"
  top: "pool4"
  pooling_param {
    pool: AVE
    kernel_size: 5
    stride: 2
    pad: 1
    engine: CAFFE
  }
}
layer {
  name: "conv5"
  type: "Convolution"
  bottom: "pool4"
  top: "conv5"
  param {
    lr_mult: 1
    decay_mult: 0
  }
  convolution_param {
    num_output: 128
    bias_term: false
    kernel_size: 1
    stride: 1
    weight_filler {
      type: "gaussian"
      std: 0.01
    }
  }
}
layer {
  name: "norm5"
  type: "BatchNorm"
  bottom: "conv5"
  top: "conv5"
  param {
    lr_mult: 0
    decay_mult: 0
  }
  param {
    lr_mult: 0
    decay_mult: 0
  }
  param {
    lr_mult: 0
    decay_mult: 0
  }
  batch_norm_param {
    moving_average_fraction: 0.05
  }
}
layer {
  name: "scale_conv5"
  type: "Scale"
  bottom: "conv5"
  top: "conv5"
  scale_param {
    bias_term: true
  }
}
layer {
  name: "relu5"
  type: "ReLU"
  bottom: "conv5"
  top: "conv5"
}
layer {
  name: "pool5"
  type: "Pooling"
  bottom: "conv5"
  top: "pool5"
  pooling_param {
    pool: AVE
    kernel_size: 4
    stride: 1
    engine: CAFFE
  }
}
layer {
  name: "ip3"
  type: "InnerProduct"
  bottom: "pool5"
  top: "ip3"
  param {
    lr_mult: 1
  }
  param {
    lr_mult: 2
  }
  inner_product_param {
    num_output: 2
    weight_filler {
      type: "xavier"
    }
    bias_filler {
      type: "constant"
    }
  }
}
layer {
  name: "loss"
  type: "SoftmaxWithLoss"
  bottom: "ip3"
  bottom: "label"
  top: "loss"
}
I0331 03:52:58.820268    25 layer_factory.hpp:77] Creating layer imagepatch
I0331 03:52:58.996765    25 db_lmdb.cpp:35] Opened lmdb /workspace/withhost/code.sensors18/lmdb/patchPG2000qf95/train-lmdb
I0331 03:52:59.002233    25 net.cpp:84] Creating Layer imagepatch
I0331 03:52:59.002689    25 net.cpp:380] imagepatch -> data
I0331 03:52:59.003648    25 net.cpp:380] imagepatch -> label
I0331 03:52:59.004175    25 data_layer.cpp:45] output data size: 64,1,150,150
I0331 03:52:59.004765    25 net.cpp:122] Setting up imagepatch
I0331 03:52:59.005420    25 net.cpp:129] Top shape: 64 1 150 150 (1440000)
I0331 03:52:59.007102    25 net.cpp:129] Top shape: 64 (64)
I0331 03:52:59.007539    25 net.cpp:137] Memory required for data: 5760256
I0331 03:52:59.008178    25 layer_factory.hpp:77] Creating layer conv0
I0331 03:52:59.008533    25 net.cpp:84] Creating Layer conv0
I0331 03:52:59.011054    25 net.cpp:406] conv0 <- data
I0331 03:52:59.011539    25 net.cpp:380] conv0 -> conv0
I0331 03:52:59.011994    25 net.cpp:122] Setting up conv0
I0331 03:52:59.012687    25 net.cpp:129] Top shape: 64 3 75 75 (1080000)
I0331 03:52:59.013216    25 net.cpp:137] Memory required for data: 10080256
I0331 03:52:59.015250    25 layer_factory.hpp:77] Creating layer conv1
I0331 03:52:59.015672    25 net.cpp:84] Creating Layer conv1
I0331 03:52:59.016180    25 net.cpp:406] conv1 <- conv0
I0331 03:52:59.018113    25 net.cpp:380] conv1 -> conv1
I0331 03:52:59.018640    25 net.cpp:122] Setting up conv1
I0331 03:52:59.019170    25 net.cpp:129] Top shape: 64 8 75 75 (2880000)
I0331 03:52:59.019678    25 net.cpp:137] Memory required for data: 21600256
I0331 03:52:59.020121    25 layer_factory.hpp:77] Creating layer norm1
I0331 03:52:59.020591    25 net.cpp:84] Creating Layer norm1
I0331 03:52:59.021057    25 net.cpp:406] norm1 <- conv1
I0331 03:52:59.021503    25 net.cpp:367] norm1 -> conv1 (in-place)
I0331 03:52:59.021917    25 net.cpp:122] Setting up norm1
I0331 03:52:59.022469    25 net.cpp:129] Top shape: 64 8 75 75 (2880000)
I0331 03:52:59.023036    25 net.cpp:137] Memory required for data: 33120256
I0331 03:52:59.023480    25 layer_factory.hpp:77] Creating layer scale_conv1
I0331 03:52:59.023910    25 net.cpp:84] Creating Layer scale_conv1
I0331 03:52:59.024533    25 net.cpp:406] scale_conv1 <- conv1
I0331 03:52:59.025004    25 net.cpp:367] scale_conv1 -> conv1 (in-place)
I0331 03:52:59.027161    25 layer_factory.hpp:77] Creating layer scale_conv1
I0331 03:52:59.028151    25 net.cpp:122] Setting up scale_conv1
I0331 03:52:59.028882    25 net.cpp:129] Top shape: 64 8 75 75 (2880000)
I0331 03:52:59.029371    25 net.cpp:137] Memory required for data: 44640256
I0331 03:52:59.029996    25 layer_factory.hpp:77] Creating layer relu1
I0331 03:52:59.030937    25 net.cpp:84] Creating Layer relu1
I0331 03:52:59.031924    25 net.cpp:406] relu1 <- conv1
I0331 03:52:59.032577    25 net.cpp:367] relu1 -> conv1 (in-place)
I0331 03:52:59.038360    25 net.cpp:122] Setting up relu1
I0331 03:52:59.038866    25 net.cpp:129] Top shape: 64 8 75 75 (2880000)
I0331 03:52:59.039448    25 net.cpp:137] Memory required for data: 56160256
I0331 03:52:59.040105    25 layer_factory.hpp:77] Creating layer pool1
I0331 03:52:59.040731    25 net.cpp:84] Creating Layer pool1
I0331 03:52:59.041486    25 net.cpp:406] pool1 <- conv1
I0331 03:52:59.042134    25 net.cpp:380] pool1 -> pool1
I0331 03:52:59.042690    25 net.cpp:122] Setting up pool1
I0331 03:52:59.043174    25 net.cpp:129] Top shape: 64 8 37 37 (700928)
I0331 03:52:59.043649    25 net.cpp:137] Memory required for data: 58963968
I0331 03:52:59.044056    25 layer_factory.hpp:77] Creating layer conv2
I0331 03:52:59.044714    25 net.cpp:84] Creating Layer conv2
I0331 03:52:59.045322    25 net.cpp:406] conv2 <- pool1
I0331 03:52:59.046015    25 net.cpp:380] conv2 -> conv2
I0331 03:52:59.046778    25 net.cpp:122] Setting up conv2
I0331 03:52:59.047288    25 net.cpp:129] Top shape: 64 16 37 37 (1401856)
I0331 03:52:59.047804    25 net.cpp:137] Memory required for data: 64571392
I0331 03:52:59.048188    25 layer_factory.hpp:77] Creating layer norm2
I0331 03:52:59.048740    25 net.cpp:84] Creating Layer norm2
I0331 03:52:59.049185    25 net.cpp:406] norm2 <- conv2
I0331 03:52:59.049810    25 net.cpp:367] norm2 -> conv2 (in-place)
I0331 03:52:59.050423    25 net.cpp:122] Setting up norm2
I0331 03:52:59.050747    25 net.cpp:129] Top shape: 64 16 37 37 (1401856)
I0331 03:52:59.051324    25 net.cpp:137] Memory required for data: 70178816
I0331 03:52:59.051729    25 layer_factory.hpp:77] Creating layer scale_conv2
I0331 03:52:59.052594    25 net.cpp:84] Creating Layer scale_conv2
I0331 03:52:59.053208    25 net.cpp:406] scale_conv2 <- conv2
I0331 03:52:59.053815    25 net.cpp:367] scale_conv2 -> conv2 (in-place)
I0331 03:52:59.054404    25 layer_factory.hpp:77] Creating layer scale_conv2
I0331 03:52:59.055011    25 net.cpp:122] Setting up scale_conv2
I0331 03:52:59.058362    25 net.cpp:129] Top shape: 64 16 37 37 (1401856)
I0331 03:52:59.058974    25 net.cpp:137] Memory required for data: 75786240
I0331 03:52:59.063663    25 layer_factory.hpp:77] Creating layer relu2
I0331 03:52:59.064159    25 net.cpp:84] Creating Layer relu2
I0331 03:52:59.064517    25 net.cpp:406] relu2 <- conv2
I0331 03:52:59.064918    25 net.cpp:367] relu2 -> conv2 (in-place)
I0331 03:52:59.065302    25 net.cpp:122] Setting up relu2
I0331 03:52:59.065711    25 net.cpp:129] Top shape: 64 16 37 37 (1401856)
I0331 03:52:59.066172    25 net.cpp:137] Memory required for data: 81393664
I0331 03:52:59.066649    25 layer_factory.hpp:77] Creating layer pool2
I0331 03:52:59.067041    25 net.cpp:84] Creating Layer pool2
I0331 03:52:59.067456    25 net.cpp:406] pool2 <- conv2
I0331 03:52:59.067907    25 net.cpp:380] pool2 -> pool2
I0331 03:52:59.068327    25 net.cpp:122] Setting up pool2
I0331 03:52:59.068704    25 net.cpp:129] Top shape: 64 16 18 18 (331776)
I0331 03:52:59.069119    25 net.cpp:137] Memory required for data: 82720768
I0331 03:52:59.069473    25 layer_factory.hpp:77] Creating layer conv3
I0331 03:52:59.069905    25 net.cpp:84] Creating Layer conv3
I0331 03:52:59.070325    25 net.cpp:406] conv3 <- pool2
I0331 03:52:59.070686    25 net.cpp:380] conv3 -> conv3
I0331 03:52:59.071161    25 net.cpp:122] Setting up conv3
I0331 03:52:59.071517    25 net.cpp:129] Top shape: 64 32 18 18 (663552)
I0331 03:52:59.071892    25 net.cpp:137] Memory required for data: 85374976
I0331 03:52:59.072314    25 layer_factory.hpp:77] Creating layer norm3
I0331 03:52:59.072686    25 net.cpp:84] Creating Layer norm3
I0331 03:52:59.073110    25 net.cpp:406] norm3 <- conv3
I0331 03:52:59.073513    25 net.cpp:367] norm3 -> conv3 (in-place)
I0331 03:52:59.073920    25 net.cpp:122] Setting up norm3
I0331 03:52:59.074429    25 net.cpp:129] Top shape: 64 32 18 18 (663552)
I0331 03:52:59.074847    25 net.cpp:137] Memory required for data: 88029184
I0331 03:52:59.075253    25 layer_factory.hpp:77] Creating layer scale_conv3
I0331 03:52:59.075585    25 net.cpp:84] Creating Layer scale_conv3
I0331 03:52:59.075950    25 net.cpp:406] scale_conv3 <- conv3
I0331 03:52:59.076387    25 net.cpp:367] scale_conv3 -> conv3 (in-place)
I0331 03:52:59.076774    25 layer_factory.hpp:77] Creating layer scale_conv3
I0331 03:52:59.077162    25 net.cpp:122] Setting up scale_conv3
I0331 03:52:59.077548    25 net.cpp:129] Top shape: 64 32 18 18 (663552)
I0331 03:52:59.077935    25 net.cpp:137] Memory required for data: 90683392
I0331 03:52:59.078297    25 layer_factory.hpp:77] Creating layer relu3
I0331 03:52:59.078667    25 net.cpp:84] Creating Layer relu3
I0331 03:52:59.079181    25 net.cpp:406] relu3 <- conv3
I0331 03:52:59.079618    25 net.cpp:367] relu3 -> conv3 (in-place)
I0331 03:52:59.080050    25 net.cpp:122] Setting up relu3
I0331 03:52:59.080410    25 net.cpp:129] Top shape: 64 32 18 18 (663552)
I0331 03:52:59.080765    25 net.cpp:137] Memory required for data: 93337600
I0331 03:52:59.081073    25 layer_factory.hpp:77] Creating layer pool3
I0331 03:52:59.081429    25 net.cpp:84] Creating Layer pool3
I0331 03:52:59.081761    25 net.cpp:406] pool3 <- conv3
I0331 03:52:59.082077    25 net.cpp:380] pool3 -> pool3
I0331 03:52:59.082429    25 net.cpp:122] Setting up pool3
I0331 03:52:59.082772    25 net.cpp:129] Top shape: 64 32 9 9 (165888)
I0331 03:52:59.083082    25 net.cpp:137] Memory required for data: 94001152
I0331 03:52:59.083451    25 layer_factory.hpp:77] Creating layer conv4
I0331 03:52:59.083786    25 net.cpp:84] Creating Layer conv4
I0331 03:52:59.084106    25 net.cpp:406] conv4 <- pool3
I0331 03:52:59.084460    25 net.cpp:380] conv4 -> conv4
I0331 03:52:59.084959    25 net.cpp:122] Setting up conv4
I0331 03:52:59.085296    25 net.cpp:129] Top shape: 64 64 9 9 (331776)
I0331 03:52:59.085598    25 net.cpp:137] Memory required for data: 95328256
I0331 03:52:59.085911    25 layer_factory.hpp:77] Creating layer norm4
I0331 03:52:59.086227    25 net.cpp:84] Creating Layer norm4
I0331 03:52:59.086544    25 net.cpp:406] norm4 <- conv4
I0331 03:52:59.086920    25 net.cpp:367] norm4 -> conv4 (in-place)
I0331 03:52:59.087242    25 net.cpp:122] Setting up norm4
I0331 03:52:59.087589    25 net.cpp:129] Top shape: 64 64 9 9 (331776)
I0331 03:52:59.087900    25 net.cpp:137] Memory required for data: 96655360
I0331 03:52:59.088313    25 layer_factory.hpp:77] Creating layer scale_conv4
I0331 03:52:59.088654    25 net.cpp:84] Creating Layer scale_conv4
I0331 03:52:59.088953    25 net.cpp:406] scale_conv4 <- conv4
I0331 03:52:59.089315    25 net.cpp:367] scale_conv4 -> conv4 (in-place)
I0331 03:52:59.089658    25 layer_factory.hpp:77] Creating layer scale_conv4
I0331 03:52:59.090034    25 net.cpp:122] Setting up scale_conv4
I0331 03:52:59.090646    25 net.cpp:129] Top shape: 64 64 9 9 (331776)
I0331 03:52:59.090975    25 net.cpp:137] Memory required for data: 97982464
I0331 03:52:59.091490    25 layer_factory.hpp:77] Creating layer relu4
I0331 03:52:59.091877    25 net.cpp:84] Creating Layer relu4
I0331 03:52:59.092191    25 net.cpp:406] relu4 <- conv4
I0331 03:52:59.092521    25 net.cpp:367] relu4 -> conv4 (in-place)
I0331 03:52:59.092856    25 net.cpp:122] Setting up relu4
I0331 03:52:59.093197    25 net.cpp:129] Top shape: 64 64 9 9 (331776)
I0331 03:52:59.093564    25 net.cpp:137] Memory required for data: 99309568
I0331 03:52:59.093890    25 layer_factory.hpp:77] Creating layer pool4
I0331 03:52:59.094229    25 net.cpp:84] Creating Layer pool4
I0331 03:52:59.094579    25 net.cpp:406] pool4 <- conv4
I0331 03:52:59.094933    25 net.cpp:380] pool4 -> pool4
I0331 03:52:59.095304    25 net.cpp:122] Setting up pool4
I0331 03:52:59.095625    25 net.cpp:129] Top shape: 64 64 4 4 (65536)
I0331 03:52:59.095968    25 net.cpp:137] Memory required for data: 99571712
I0331 03:52:59.096289    25 layer_factory.hpp:77] Creating layer conv5
I0331 03:52:59.096637    25 net.cpp:84] Creating Layer conv5
I0331 03:52:59.096973    25 net.cpp:406] conv5 <- pool4
I0331 03:52:59.097383    25 net.cpp:380] conv5 -> conv5
I0331 03:52:59.097803    25 net.cpp:122] Setting up conv5
I0331 03:52:59.098145    25 net.cpp:129] Top shape: 64 128 4 4 (131072)
I0331 03:52:59.098471    25 net.cpp:137] Memory required for data: 100096000
I0331 03:52:59.098783    25 layer_factory.hpp:77] Creating layer norm5
I0331 03:52:59.099120    25 net.cpp:84] Creating Layer norm5
I0331 03:52:59.099438    25 net.cpp:406] norm5 <- conv5
I0331 03:52:59.099783    25 net.cpp:367] norm5 -> conv5 (in-place)
I0331 03:52:59.100105    25 net.cpp:122] Setting up norm5
I0331 03:52:59.100481    25 net.cpp:129] Top shape: 64 128 4 4 (131072)
I0331 03:52:59.100797    25 net.cpp:137] Memory required for data: 100620288
I0331 03:52:59.101181    25 layer_factory.hpp:77] Creating layer scale_conv5
I0331 03:52:59.101526    25 net.cpp:84] Creating Layer scale_conv5
I0331 03:52:59.101832    25 net.cpp:406] scale_conv5 <- conv5
I0331 03:52:59.102144    25 net.cpp:367] scale_conv5 -> conv5 (in-place)
I0331 03:52:59.102499    25 layer_factory.hpp:77] Creating layer scale_conv5
I0331 03:52:59.102833    25 net.cpp:122] Setting up scale_conv5
I0331 03:52:59.103168    25 net.cpp:129] Top shape: 64 128 4 4 (131072)
I0331 03:52:59.103492    25 net.cpp:137] Memory required for data: 101144576
I0331 03:52:59.103806    25 layer_factory.hpp:77] Creating layer relu5
I0331 03:52:59.104110    25 net.cpp:84] Creating Layer relu5
I0331 03:52:59.104481    25 net.cpp:406] relu5 <- conv5
I0331 03:52:59.104840    25 net.cpp:367] relu5 -> conv5 (in-place)
I0331 03:52:59.105144    25 net.cpp:122] Setting up relu5
I0331 03:52:59.105504    25 net.cpp:129] Top shape: 64 128 4 4 (131072)
I0331 03:52:59.105849    25 net.cpp:137] Memory required for data: 101668864
I0331 03:52:59.106199    25 layer_factory.hpp:77] Creating layer pool5
I0331 03:52:59.106607    25 net.cpp:84] Creating Layer pool5
I0331 03:52:59.106976    25 net.cpp:406] pool5 <- conv5
I0331 03:52:59.107280    25 net.cpp:380] pool5 -> pool5
I0331 03:52:59.107674    25 net.cpp:122] Setting up pool5
I0331 03:52:59.108027    25 net.cpp:129] Top shape: 64 128 1 1 (8192)
I0331 03:52:59.108409    25 net.cpp:137] Memory required for data: 101701632
I0331 03:52:59.108796    25 layer_factory.hpp:77] Creating layer ip3
I0331 03:52:59.109180    25 net.cpp:84] Creating Layer ip3
I0331 03:52:59.109550    25 net.cpp:406] ip3 <- pool5
I0331 03:52:59.109866    25 net.cpp:380] ip3 -> ip3
I0331 03:52:59.110196    25 net.cpp:122] Setting up ip3
I0331 03:52:59.110559    25 net.cpp:129] Top shape: 64 2 (128)
I0331 03:52:59.110867    25 net.cpp:137] Memory required for data: 101702144
I0331 03:52:59.111212    25 layer_factory.hpp:77] Creating layer loss
I0331 03:52:59.111562    25 net.cpp:84] Creating Layer loss
I0331 03:52:59.111951    25 net.cpp:406] loss <- ip3
I0331 03:52:59.112257    25 net.cpp:406] loss <- label
I0331 03:52:59.112577    25 net.cpp:380] loss -> loss
I0331 03:52:59.112922    25 layer_factory.hpp:77] Creating layer loss
…
I0331 03:52:59.128612    25 solver.cpp:172] Creating test net (#0) specified by net file: train_new.prototxt
I0331 03:52:59.128937    25 net.cpp:294] The NetState phase (1) differed from the phase (0) specified by a rule in layer imagepatch
I0331 03:52:59.129417    25 net.cpp:51] Initializing net from parameters: 
name: "ForensicNet"
state {
  phase: TEST
}
layer {
  name: "imagepatch"
  type: "Data"
  top: "data"
  top: "label"
  include {
    phase: TEST
  }
  data_param {
    source: "/workspace/withhost/code.sensors18/lmdb/patchPG2000qf95/val-lmdb"
    batch_size: 1
    backend: LMDB
  }
}
layer {
  name: "conv0"
  type: "Convolution"
  bottom: "data"
  top: "conv0"
  param {
    lr_mult: 0
    decay_mult: 0
  }
  convolution_param {
    num_output: 3
    bias_term: false
    pad: 2
    kernel_size: 5
    stride: 2
    weight_filler {
      type: "qian"
    }
  }
}
layer {
  name: "conv1"
  type: "Convolution"
  bottom: "conv0"
  top: "conv1"
  param {
    lr_mult: 1
    decay_mult: 0
  }
  convolution_param {
    num_output: 8
    bias_term: false
    pad: 2
    kernel_size: 5
    stride: 1
    weight_filler {
      type: "gaussian"
      std: 0.01
    }
  }
}
layer {
  name: "norm1"
  type: "BatchNorm"
  bottom: "conv1"
  top: "conv1"
  param {
    lr_mult: 0
    decay_mult: 0
  }
  param {
    lr_mult: 0
    decay_mult: 0
  }
  param {
    lr_mult: 0
    decay_mult: 0
  }
  batch_norm_param {
    moving_average_fraction: 0.05
  }
}
layer {
  name: "scale_conv1"
  type: "Scale"
  bottom: "conv1"
  top: "conv1"
  scale_param {
    bias_term: true
  }
}
layer {
  name: "relu1"
  type: "ReLU"
  bottom: "conv1"
  top: "conv1"
}
layer {
  name: "pool1"
  type: "Pooling"
  bottom: "conv1"
  top: "pool1"
  pooling_param {
    pool: AVE
    kernel_size: 5
    stride: 2
    pad: 1
    engine: CAFFE
  }
}
layer {
  name: "conv2"
  type: "Convolution"
  bottom: "pool1"
  top: "conv2"
  param {
    lr_mult: 1
    decay_mult: 0
  }
  convolution_param {
    num_output: 16
    bias_term: false
    pad: 2
    kernel_size: 5
    stride: 1
    weight_filler {
      type: "gaussian"
      std: 0.01
    }
  }
}
layer {
  name: "norm2"
  type: "BatchNorm"
  bottom: "conv2"
  top: "conv2"
  param {
    lr_mult: 0
    decay_mult: 0
  }
  param {
    lr_mult: 0
    decay_mult: 0
  }
  param {
    lr_mult: 0
    decay_mult: 0
  }
  batch_norm_param {
    moving_average_fraction: 0.05
  }
}
layer {
  name: "scale_conv2"
  type: "Scale"
  bottom: "conv2"
  top: "conv2"
  scale_param {
    bias_term: true
  }
}
layer {
  name: "relu2"
  type: "ReLU"
  bottom: "conv2"
  top: "conv2"
}
layer {
  name: "pool2"
  type: "Pooling"
  bottom: "conv2"
  top: "pool2"
  pooling_param {
    pool: AVE
    kernel_size: 5
    stride: 2
    pad: 1
    engine: CAFFE
  }
}
layer {
  name: "conv3"
  type: "Convolution"
  bottom: "pool2"
  top: "conv3"
  param {
    lr_mult: 1
    decay_mult: 0
  }
  convolution_param {
    num_output: 32
    bias_term: false
    pad: 1
    kernel_size: 3
    stride: 1
    weight_filler {
      type: "gaussian"
      std: 0.01
    }
  }
}
layer {
  name: "norm3"
  type: "BatchNorm"
  bottom: "conv3"
  top: "conv3"
  param {
    lr_mult: 0
    decay_mult: 0
  }
  param {
    lr_mult: 0
    decay_mult: 0
  }
  param {
    lr_mult: 0
    decay_mult: 0
  }
  batch_norm_param {
    moving_average_fraction: 0.05
  }
}
layer {
  name: "scale_conv3"
  type: "Scale"
  bottom: "conv3"
  top: "conv3"
  scale_param {
    bias_term: true
  }
}
layer {
  name: "relu3"
  type: "ReLU"
  bottom: "conv3"
  top: "conv3"
}
layer {
  name: "pool3"
  type: "Pooling"
  bottom: "conv3"
  top: "pool3"
  pooling_param {
    pool: AVE
    kernel_size: 5
    stride: 2
    pad: 1
    engine: CAFFE
  }
}
layer {
  name: "conv4"
  type: "Convolution"
  bottom: "pool3"
  top: "conv4"
  param {
    lr_mult: 1
    decay_mult: 0
  }
  convolution_param {
    num_output: 64
    bias_term: false
    pad: 1
    kernel_size: 3
    stride: 1
    weight_filler {
      type: "gaussian"
      std: 0.01
    }
  }
}
layer {
  name: "norm4"
  type: "BatchNorm"
  bottom: "conv4"
  top: "conv4"
  param {
    lr_mult: 0
    decay_mult: 0
  }
  param {
    lr_mult: 0
    decay_mult: 0
  }
  param {
    lr_mult: 0
    decay_mult: 0
  }
  batch_norm_param {
    moving_average_fraction: 0.05
  }
}
layer {
  name: "scale_conv4"
  type: "Scale"
  bottom: "conv4"
  top: "conv4"
  scale_param {
    bias_term: true
  }
}
layer {
  name: "relu4"
  type: "ReLU"
  bottom: "conv4"
  top: "conv4"
}
layer {
  name: "pool4"
  type: "Pooling"
  bottom: "conv4"
  top: "pool4"
  pooling_param {
    pool: AVE
    kernel_size: 5
    stride: 2
    pad: 1
    engine: CAFFE
  }
}
layer {
  name: "conv5"
  type: "Convolution"
  bottom: "pool4"
  top: "conv5"
  param {
    lr_mult: 1
    decay_mult: 0
  }
  convolution_param {
    num_output: 128
    bias_term: false
    kernel_size: 1
    stride: 1
    weight_filler {
      type: "gaussian"
      std: 0.01
    }
  }
}
layer {
  name: "norm5"
  type: "BatchNorm"
  bottom: "conv5"
  top: "conv5"
  param {
    lr_mult: 0
    decay_mult: 0
  }
  param {
    lr_mult: 0
    decay_mult: 0
  }
  param {
    lr_mult: 0
    decay_mult: 0
  }
  batch_norm_param {
    moving_average_fraction: 0.05
  }
}
layer {
  name: "scale_conv5"
  type: "Scale"
  bottom: "conv5"
  top: "conv5"
  scale_param {
    bias_term: true
  }
}
layer {
  name: "relu5"
  type: "ReLU"
  bottom: "conv5"
  top: "conv5"
}
layer {
  name: "pool5"
  type: "Pooling"
  bottom: "conv5"
  top: "pool5"
  pooling_param {
    pool: AVE
    kernel_size: 4
    stride: 1
    engine: CAFFE
  }
}
layer {
  name: "ip3"
  type: "InnerProduct"
  bottom: "pool5"
  top: "ip3"
  param {
    lr_mult: 1
  }
  param {
    lr_mult: 2
  }
  inner_product_param {
    num_output: 2
    weight_filler {
      type: "xavier"
    }
    bias_filler {
      type: "constant"
    }
  }
}
layer {
  name: "accuracy"
  type: "Accuracy"
  bottom: "ip3"
  bottom: "label"
  top: "accuracy"
  include {
    phase: TEST
  }
}
layer {
  name: "loss"
  type: "SoftmaxWithLoss"
  bottom: "ip3"
  bottom: "label"
  top: "loss"
}
I0331 03:52:59.129892    25 layer_factory.hpp:77] Creating layer imagepatch
I0331 03:52:59.148102    25 db_lmdb.cpp:35] Opened lmdb /workspace/withhost/code.sensors18/lmdb/patchPG2000qf95/val-lmdb
I0331 03:52:59.149816    25 net.cpp:84] Creating Layer imagepatch
I0331 03:52:59.150175    25 net.cpp:380] imagepatch -> data
I0331 03:52:59.150457    25 net.cpp:380] imagepatch -> label
I0331 03:52:59.150864    25 data_layer.cpp:45] output data size: 1,1,150,150
I0331 03:52:59.151490    25 net.cpp:122] Setting up imagepatch
I0331 03:52:59.152264    25 net.cpp:129] Top shape: 1 1 150 150 (22500)
I0331 03:52:59.152551    25 net.cpp:129] Top shape: 1 (1)
I0331 03:52:59.153251    25 net.cpp:137] Memory required for data: 90004
I0331 03:52:59.153592    25 layer_factory.hpp:77] Creating layer label_imagepatch_1_split
I0331 03:52:59.153877    25 net.cpp:84] Creating Layer label_imagepatch_1_split
I0331 03:52:59.154160    25 net.cpp:406] label_imagepatch_1_split <- label
I0331 03:52:59.154451    25 net.cpp:380] label_imagepatch_1_split -> label_imagepatch_1_split_0
I0331 03:52:59.154768    25 net.cpp:380] label_imagepatch_1_split -> label_imagepatch_1_split_1
I0331 03:52:59.155078    25 net.cpp:122] Setting up label_imagepatch_1_split
I0331 03:52:59.155403    25 net.cpp:129] Top shape: 1 (1)
I0331 03:52:59.155720    25 net.cpp:129] Top shape: 1 (1)
I0331 03:52:59.155999    25 net.cpp:137] Memory required for data: 90012
I0331 03:52:59.156333    25 layer_factory.hpp:77] Creating layer conv0
I0331 03:52:59.156667    25 net.cpp:84] Creating Layer conv0
I0331 03:52:59.157057    25 net.cpp:406] conv0 <- data
I0331 03:52:59.157431    25 net.cpp:380] conv0 -> conv0
I0331 03:52:59.157807    25 net.cpp:122] Setting up conv0
I0331 03:52:59.158128    25 net.cpp:129] Top shape: 1 3 75 75 (16875)
I0331 03:52:59.158403    25 net.cpp:137] Memory required for data: 157512
I0331 03:52:59.158756    25 layer_factory.hpp:77] Creating layer conv1
I0331 03:52:59.159067    25 net.cpp:84] Creating Layer conv1
I0331 03:52:59.159417    25 net.cpp:406] conv1 <- conv0
I0331 03:52:59.159750    25 net.cpp:380] conv1 -> conv1
I0331 03:52:59.160090    25 net.cpp:122] Setting up conv1
I0331 03:52:59.160414    25 net.cpp:129] Top shape: 1 8 75 75 (45000)
I0331 03:52:59.160724    25 net.cpp:137] Memory required for data: 337512
I0331 03:52:59.161027    25 layer_factory.hpp:77] Creating layer norm1
I0331 03:52:59.161387    25 net.cpp:84] Creating Layer norm1
I0331 03:52:59.161720    25 net.cpp:406] norm1 <- conv1
I0331 03:52:59.162066    25 net.cpp:367] norm1 -> conv1 (in-place)
I0331 03:52:59.162405    25 net.cpp:122] Setting up norm1
I0331 03:52:59.162737    25 net.cpp:129] Top shape: 1 8 75 75 (45000)
I0331 03:52:59.163128    25 net.cpp:137] Memory required for data: 517512
I0331 03:52:59.163465    25 layer_factory.hpp:77] Creating layer scale_conv1
I0331 03:52:59.163844    25 net.cpp:84] Creating Layer scale_conv1
I0331 03:52:59.164183    25 net.cpp:406] scale_conv1 <- conv1
I0331 03:52:59.164572    25 net.cpp:367] scale_conv1 -> conv1 (in-place)
I0331 03:52:59.164969    25 layer_factory.hpp:77] Creating layer scale_conv1
I0331 03:52:59.165479    25 net.cpp:122] Setting up scale_conv1
I0331 03:52:59.165820    25 net.cpp:129] Top shape: 1 8 75 75 (45000)
I0331 03:52:59.166137    25 net.cpp:137] Memory required for data: 697512
I0331 03:52:59.166440    25 layer_factory.hpp:77] Creating layer relu1
I0331 03:52:59.166786    25 net.cpp:84] Creating Layer relu1
I0331 03:52:59.167104    25 net.cpp:406] relu1 <- conv1
I0331 03:52:59.167421    25 net.cpp:367] relu1 -> conv1 (in-place)
I0331 03:52:59.167768    25 net.cpp:122] Setting up relu1
I0331 03:52:59.168129    25 net.cpp:129] Top shape: 1 8 75 75 (45000)
I0331 03:52:59.168460    25 net.cpp:137] Memory required for data: 877512
I0331 03:52:59.168777    25 layer_factory.hpp:77] Creating layer pool1
I0331 03:52:59.169103    25 net.cpp:84] Creating Layer pool1
I0331 03:52:59.169492    25 net.cpp:406] pool1 <- conv1
I0331 03:52:59.169800    25 net.cpp:380] pool1 -> pool1
I0331 03:52:59.170114    25 net.cpp:122] Setting up pool1
I0331 03:52:59.170430    25 net.cpp:129] Top shape: 1 8 37 37 (10952)
I0331 03:52:59.170800    25 net.cpp:137] Memory required for data: 921320
I0331 03:52:59.171144    25 layer_factory.hpp:77] Creating layer conv2
I0331 03:52:59.171464    25 net.cpp:84] Creating Layer conv2
I0331 03:52:59.171803    25 net.cpp:406] conv2 <- pool1
I0331 03:52:59.172158    25 net.cpp:380] conv2 -> conv2
I0331 03:52:59.172596    25 net.cpp:122] Setting up conv2
I0331 03:52:59.173480    25 net.cpp:129] Top shape: 1 16 37 37 (21904)
I0331 03:52:59.173831    25 net.cpp:137] Memory required for data: 1008936
I0331 03:52:59.174129    25 layer_factory.hpp:77] Creating layer norm2
I0331 03:52:59.174510    25 net.cpp:84] Creating Layer norm2
I0331 03:52:59.174923    25 net.cpp:406] norm2 <- conv2
I0331 03:52:59.175349    25 net.cpp:367] norm2 -> conv2 (in-place)
I0331 03:52:59.175736    25 net.cpp:122] Setting up norm2
I0331 03:52:59.176116    25 net.cpp:129] Top shape: 1 16 37 37 (21904)
I0331 03:52:59.176486    25 net.cpp:137] Memory required for data: 1096552
I0331 03:52:59.176867    25 layer_factory.hpp:77] Creating layer scale_conv2
I0331 03:52:59.177186    25 net.cpp:84] Creating Layer scale_conv2
I0331 03:52:59.177553    25 net.cpp:406] scale_conv2 <- conv2
I0331 03:52:59.177934    25 net.cpp:367] scale_conv2 -> conv2 (in-place)
I0331 03:52:59.178305    25 layer_factory.hpp:77] Creating layer scale_conv2
I0331 03:52:59.178659    25 net.cpp:122] Setting up scale_conv2
I0331 03:52:59.178956    25 net.cpp:129] Top shape: 1 16 37 37 (21904)
I0331 03:52:59.179255    25 net.cpp:137] Memory required for data: 1184168
I0331 03:52:59.179579    25 layer_factory.hpp:77] Creating layer relu2
I0331 03:52:59.179884    25 net.cpp:84] Creating Layer relu2
I0331 03:52:59.180210    25 net.cpp:406] relu2 <- conv2
I0331 03:52:59.180543    25 net.cpp:367] relu2 -> conv2 (in-place)
I0331 03:52:59.180879    25 net.cpp:122] Setting up relu2
I0331 03:52:59.181203    25 net.cpp:129] Top shape: 1 16 37 37 (21904)
I0331 03:52:59.181571    25 net.cpp:137] Memory required for data: 1271784
I0331 03:52:59.181938    25 layer_factory.hpp:77] Creating layer pool2
I0331 03:52:59.182312    25 net.cpp:84] Creating Layer pool2
I0331 03:52:59.182610    25 net.cpp:406] pool2 <- conv2
I0331 03:52:59.182946    25 net.cpp:380] pool2 -> pool2
I0331 03:52:59.183250    25 net.cpp:122] Setting up pool2
I0331 03:52:59.183563    25 net.cpp:129] Top shape: 1 16 18 18 (5184)
I0331 03:52:59.183907    25 net.cpp:137] Memory required for data: 1292520
I0331 03:52:59.184206    25 layer_factory.hpp:77] Creating layer conv3
I0331 03:52:59.184571    25 net.cpp:84] Creating Layer conv3
I0331 03:52:59.184880    25 net.cpp:406] conv3 <- pool2
I0331 03:52:59.185195    25 net.cpp:380] conv3 -> conv3
I0331 03:52:59.185571    25 net.cpp:122] Setting up conv3
I0331 03:52:59.185871    25 net.cpp:129] Top shape: 1 32 18 18 (10368)
I0331 03:52:59.186201    25 net.cpp:137] Memory required for data: 1333992
I0331 03:52:59.186549    25 layer_factory.hpp:77] Creating layer norm3
I0331 03:52:59.186939    25 net.cpp:84] Creating Layer norm3
I0331 03:52:59.187249    25 net.cpp:406] norm3 <- conv3
I0331 03:52:59.187578    25 net.cpp:367] norm3 -> conv3 (in-place)
I0331 03:52:59.187927    25 net.cpp:122] Setting up norm3
I0331 03:52:59.188257    25 net.cpp:129] Top shape: 1 32 18 18 (10368)
I0331 03:52:59.188617    25 net.cpp:137] Memory required for data: 1375464
I0331 03:52:59.189040    25 layer_factory.hpp:77] Creating layer scale_conv3
I0331 03:52:59.189430    25 net.cpp:84] Creating Layer scale_conv3
I0331 03:52:59.189762    25 net.cpp:406] scale_conv3 <- conv3
I0331 03:52:59.190081    25 net.cpp:367] scale_conv3 -> conv3 (in-place)
I0331 03:52:59.190492    25 layer_factory.hpp:77] Creating layer scale_conv3
I0331 03:52:59.190888    25 net.cpp:122] Setting up scale_conv3
I0331 03:52:59.192150    25 net.cpp:129] Top shape: 1 32 18 18 (10368)
I0331 03:52:59.192576    25 net.cpp:137] Memory required for data: 1416936
I0331 03:52:59.192901    25 layer_factory.hpp:77] Creating layer relu3
I0331 03:52:59.193222    25 net.cpp:84] Creating Layer relu3
I0331 03:52:59.193526    25 net.cpp:406] relu3 <- conv3
I0331 03:52:59.193830    25 net.cpp:367] relu3 -> conv3 (in-place)
I0331 03:52:59.194141    25 net.cpp:122] Setting up relu3
I0331 03:52:59.194484    25 net.cpp:129] Top shape: 1 32 18 18 (10368)
I0331 03:52:59.194780    25 net.cpp:137] Memory required for data: 1458408
I0331 03:52:59.195108    25 layer_factory.hpp:77] Creating layer pool3
I0331 03:52:59.195430    25 net.cpp:84] Creating Layer pool3
I0331 03:52:59.195806    25 net.cpp:406] pool3 <- conv3
I0331 03:52:59.196116    25 net.cpp:380] pool3 -> pool3
I0331 03:52:59.196552    25 net.cpp:122] Setting up pool3
I0331 03:52:59.196966    25 net.cpp:129] Top shape: 1 32 9 9 (2592)
I0331 03:52:59.197490    25 net.cpp:137] Memory required for data: 1468776
I0331 03:52:59.197890    25 layer_factory.hpp:77] Creating layer conv4
I0331 03:52:59.198328    25 net.cpp:84] Creating Layer conv4
I0331 03:52:59.198663    25 net.cpp:406] conv4 <- pool3
I0331 03:52:59.198966    25 net.cpp:380] conv4 -> conv4
I0331 03:52:59.199807    25 net.cpp:122] Setting up conv4
I0331 03:52:59.200129    25 net.cpp:129] Top shape: 1 64 9 9 (5184)
I0331 03:52:59.200455    25 net.cpp:137] Memory required for data: 1489512
I0331 03:52:59.200762    25 layer_factory.hpp:77] Creating layer norm4
I0331 03:52:59.201072    25 net.cpp:84] Creating Layer norm4
I0331 03:52:59.201416    25 net.cpp:406] norm4 <- conv4
I0331 03:52:59.201731    25 net.cpp:367] norm4 -> conv4 (in-place)
I0331 03:52:59.202045    25 net.cpp:122] Setting up norm4
I0331 03:52:59.202380    25 net.cpp:129] Top shape: 1 64 9 9 (5184)
I0331 03:52:59.202672    25 net.cpp:137] Memory required for data: 1510248
I0331 03:52:59.203006    25 layer_factory.hpp:77] Creating layer scale_conv4
I0331 03:52:59.203322    25 net.cpp:84] Creating Layer scale_conv4
I0331 03:52:59.203649    25 net.cpp:406] scale_conv4 <- conv4
I0331 03:52:59.203971    25 net.cpp:367] scale_conv4 -> conv4 (in-place)
I0331 03:52:59.204288    25 layer_factory.hpp:77] Creating layer scale_conv4
I0331 03:52:59.204684    25 net.cpp:122] Setting up scale_conv4
I0331 03:52:59.205081    25 net.cpp:129] Top shape: 1 64 9 9 (5184)
I0331 03:52:59.205541    25 net.cpp:137] Memory required for data: 1530984
I0331 03:52:59.206019    25 layer_factory.hpp:77] Creating layer relu4
I0331 03:52:59.206348    25 net.cpp:84] Creating Layer relu4
I0331 03:52:59.206643    25 net.cpp:406] relu4 <- conv4
I0331 03:52:59.206954    25 net.cpp:367] relu4 -> conv4 (in-place)
I0331 03:52:59.207290    25 net.cpp:122] Setting up relu4
I0331 03:52:59.207621    25 net.cpp:129] Top shape: 1 64 9 9 (5184)
I0331 03:52:59.207923    25 net.cpp:137] Memory required for data: 1551720
I0331 03:52:59.208228    25 layer_factory.hpp:77] Creating layer pool4
I0331 03:52:59.208595    25 net.cpp:84] Creating Layer pool4
I0331 03:52:59.208907    25 net.cpp:406] pool4 <- conv4
I0331 03:52:59.209236    25 net.cpp:380] pool4 -> pool4
I0331 03:52:59.209570    25 net.cpp:122] Setting up pool4
I0331 03:52:59.209920    25 net.cpp:129] Top shape: 1 64 4 4 (1024)
I0331 03:52:59.210227    25 net.cpp:137] Memory required for data: 1555816
I0331 03:52:59.210536    25 layer_factory.hpp:77] Creating layer conv5
I0331 03:52:59.210835    25 net.cpp:84] Creating Layer conv5
I0331 03:52:59.211143    25 net.cpp:406] conv5 <- pool4
I0331 03:52:59.211506    25 net.cpp:380] conv5 -> conv5
I0331 03:52:59.211913    25 net.cpp:122] Setting up conv5
I0331 03:52:59.212221    25 net.cpp:129] Top shape: 1 128 4 4 (2048)
I0331 03:52:59.212570    25 net.cpp:137] Memory required for data: 1564008
I0331 03:52:59.212997    25 layer_factory.hpp:77] Creating layer norm5
I0331 03:52:59.213465    25 net.cpp:84] Creating Layer norm5
I0331 03:52:59.213891    25 net.cpp:406] norm5 <- conv5
I0331 03:52:59.214303    25 net.cpp:367] norm5 -> conv5 (in-place)
I0331 03:52:59.214663    25 net.cpp:122] Setting up norm5
I0331 03:52:59.214967    25 net.cpp:129] Top shape: 1 128 4 4 (2048)
I0331 03:52:59.215312    25 net.cpp:137] Memory required for data: 1572200
I0331 03:52:59.215662    25 layer_factory.hpp:77] Creating layer scale_conv5
I0331 03:52:59.216030    25 net.cpp:84] Creating Layer scale_conv5
I0331 03:52:59.216428    25 net.cpp:406] scale_conv5 <- conv5
I0331 03:52:59.216778    25 net.cpp:367] scale_conv5 -> conv5 (in-place)
I0331 03:52:59.217156    25 layer_factory.hpp:77] Creating layer scale_conv5
I0331 03:52:59.217494    25 net.cpp:122] Setting up scale_conv5
I0331 03:52:59.217808    25 net.cpp:129] Top shape: 1 128 4 4 (2048)
I0331 03:52:59.218107    25 net.cpp:137] Memory required for data: 1580392
I0331 03:52:59.218451    25 layer_factory.hpp:77] Creating layer relu5
I0331 03:52:59.218763    25 net.cpp:84] Creating Layer relu5
I0331 03:52:59.219069    25 net.cpp:406] relu5 <- conv5
I0331 03:52:59.219415    25 net.cpp:367] relu5 -> conv5 (in-place)
I0331 03:52:59.219735    25 net.cpp:122] Setting up relu5
I0331 03:52:59.220044    25 net.cpp:129] Top shape: 1 128 4 4 (2048)
I0331 03:52:59.220417    25 net.cpp:137] Memory required for data: 1588584
I0331 03:52:59.220762    25 layer_factory.hpp:77] Creating layer pool5
I0331 03:52:59.221195    25 net.cpp:84] Creating Layer pool5
I0331 03:52:59.221745    25 net.cpp:406] pool5 <- conv5
I0331 03:52:59.222271    25 net.cpp:380] pool5 -> pool5
I0331 03:52:59.222767    25 net.cpp:122] Setting up pool5
I0331 03:52:59.223173    25 net.cpp:129] Top shape: 1 128 1 1 (128)
I0331 03:52:59.223523    25 net.cpp:137] Memory required for data: 1589096
I0331 03:52:59.224032    25 layer_factory.hpp:77] Creating layer ip3
I0331 03:52:59.224444    25 net.cpp:84] Creating Layer ip3
I0331 03:52:59.224843    25 net.cpp:406] ip3 <- pool5
I0331 03:52:59.226783    25 net.cpp:380] ip3 -> ip3
I0331 03:52:59.227246    25 net.cpp:122] Setting up ip3
I0331 03:52:59.227584    25 net.cpp:129] Top shape: 1 2 (2)
I0331 03:52:59.227965    25 net.cpp:137] Memory required for data: 1589104
I0331 03:52:59.228308    25 layer_factory.hpp:77] Creating layer ip3_ip3_0_split
I0331 03:52:59.228665    25 net.cpp:84] Creating Layer ip3_ip3_0_split
I0331 03:52:59.229118    25 net.cpp:406] ip3_ip3_0_split <- ip3
I0331 03:52:59.229534    25 net.cpp:380] ip3_ip3_0_split -> ip3_ip3_0_split_0
I0331 03:52:59.230072    25 net.cpp:380] ip3_ip3_0_split -> ip3_ip3_0_split_1
I0331 03:52:59.230482    25 net.cpp:122] Setting up ip3_ip3_0_split
I0331 03:52:59.230870    25 net.cpp:129] Top shape: 1 2 (2)
I0331 03:52:59.231253    25 net.cpp:129] Top shape: 1 2 (2)
I0331 03:52:59.231580    25 net.cpp:137] Memory required for data: 1589120
I0331 03:52:59.231914    25 layer_factory.hpp:77] Creating layer accuracy
I0331 03:52:59.232268    25 net.cpp:84] Creating Layer accuracy
I0331 03:52:59.232717    25 net.cpp:406] accuracy <- ip3_ip3_0_split_0
I0331 03:52:59.233099    25 net.cpp:406] accuracy <- label_imagepatch_1_split_0
I0331 03:52:59.233520    25 net.cpp:380] accuracy -> accuracy
…
